…
        min_scale: 0.3
        max_scale: 1
        min_aspect_ratio: 0.5
        max_aspect_ratio: 2
      }
      sample_constraint {
        min_jaccard_overlap: 0.9
      }
      max_sample: 1
      max_trials: 50
    }
    batch_sampler {
      sampler {
        min_scale: 0.3
        max_scale: 1
        min_aspect_ratio: 0.5
        max_aspect_ratio: 2
      }
      sample_constraint {
        max_jaccard_overlap: 1
      }
      max_sample: 1
      max_trials: 50
    }
    label_map_file: "data/zhili_coco_posneg/labelmap_coco.prototxt"
  }
}
layer {
  name: "stem1"
  type: "Convolution"
  bottom: "data"
  top: "stem1"
  convolution_param {
    num_output: 32
    bias_term: false
    pad: 1
    kernel_size: 3
    stride: 2
    weight_filler {
      type: "xavier"
    }
    bias_filler {
      type: "constant"
    }
  }
}
layer {
  name: "stem1_bn"
  type: "BatchNorm"
  bottom: "stem1"
  top: "stem1"
  batch_norm_param {
    moving_average_fraction: 0.999
    eps: 0.001
  }
}
layer {
  name: "stem1_scale"
  type: "Scale"
  bottom: "stem1"
  top: "stem1"
  scale_param {
    filler {
      value: 1
    }
    bias_term: true
    bias_filler {
      value: 0
    }
  }
}
layer {
  name: "stem1_relu"
  type: "ReLU"
  bottom: "stem1"
  top: "stem1"
}
layer {
  name: "stem2a"
  type: "Convolution"
  bottom: "stem1"
  top: "stem2a"
  convolution_param {
    num_output: 16
    bias_term: false
    pad: 0
    kernel_size: 1
    stride: 1
    weight_filler {
      type: "xavier"
    }
    bias_filler {
      type: "constant"
    }
  }
}
layer {
  name: "stem2a_bn"
  type: "BatchNorm"
  bottom: "stem2a"
  top: "stem2a"
  batch_norm_param {
    moving_average_fraction: 0.999
    eps: 0.001
  }
}
layer {
  name: "stem2a_scale"
  type: "Scale"
  bottom: "stem2a"
  top: "stem2a"
  scale_param {
    filler {
      value: 1
    }
    bias_term: true
    bias_filler {
      value: 0
    }
  }
}
layer {
  name: "stem2a_relu"
  type: "ReLU"
  bottom: "stem2a"
  top: "stem2a"
}
layer {
  name: "stem2b"
  type: "Convolution"
  bottom: "stem2a"
  top: "stem2b"
  convolution_param {
    num_output: 32
    bias_term: false
    pad: 1
    kernel_size: 3
    stride: 2
    weight_filler {
      type: "xavier"
    }
    bias_filler {
      type: "constant"
    }
  }
}
layer {
  name: "stem2b_bn"
  type: "BatchNorm"
  bottom: "stem2b"
  top: "stem2b"
  batch_norm_param {
    moving_average_fraction: 0.999
    eps: 0.001
  }
}
layer {
  name: "stem2b_scale"
  type: "Scale"
  bottom: "stem2b"
  top: "stem2b"
  scale_param {
    filler {
      value: 1
    }
    bias_term: true
    bias_filler {
      value: 0
    }
  }
}
layer {
  name: "stem2b_relu"
  type: "ReLU"
  bottom: "stem2b"
  top: "stem2b"
}
layer {
  name: "stem_pool"
  type: "Pooling"
  bottom: "stem1"
  top: "stem_pool"
  pooling_param {
    pool: MAX
    kernel_size: 2
    stride: 2
  }
}
layer {
  name: "stem_concat"
  type: "Concat"
  bottom: "stem_pool"
  bottom: "stem2b"
  top: "stem_concat"
  concat_param {
    axis: 1
  }
}
layer {
  name: "stem3"
  type: "Convolution"
  bottom: "stem_concat"
  top: "stem3"
  convolution_param {
    num_output: 32
    bias_term: false
    pad: 0
    kernel_size: 1
    stride: 1
    weight_filler {
      type: "xavier"
    }
    bias_filler {
      type: "constant"
    }
  }
}
layer {
  name: "stem3_bn"
  type: "BatchNorm"
  bottom: "stem3"
  top: "stem3"
  batch_norm_param {
    moving_average_fraction: 0.999
    eps: 0.001
  }
}
layer {
  name: "stem3_scale"
  type: "Scale"
  bottom: "stem3"
  top: "stem3"
  scale_param {
    filler {
      value: 1
    }
    bias_term: true
    bias_filler {
      value: 0
    }
  }
}
layer {
  name: "stem3_relu"
  type: "ReLU"
  bottom: "stem3"
  top: "stem3"
}
layer {
  name: "stage1_1_branch1a"
  type: "Convolution"
  bottom: "stem3"
  top: "stage1_1_branch1a"
  convolution_param {
    num_output: 8
    bias_term: false
    pad: 0
    kernel_size: 1
    stride: 1
    weight_filler {
      type: "xavier"
    }
    bias_filler {
      type: "constant"
    }
  }
}
layer {
  name: "stage1_1_branch1a_bn"
  type: "BatchNorm"
  bottom: "stage1_1_branch1a"
  top: "stage1_1_branch1a"
  batch_norm_param {
    moving_average_fraction: 0.999
    eps: 0.001
  }
}
layer {
  name: "stage1_1_branch1a_scale"
  type: "Scale"
  bottom: "stage1_1_branch1a"
  top: "stage1_1_branch1a"
  scale_param {
    filler {
      value: 1
    }
    bias_term: true
    bias_filler {
      value: 0
    }
  }
}
layer {
  name: "stage1_1_branch1a_relu"
  type: "ReLU"
  bottom: "stage1_1_branch1a"
  top: "stage1_1_branch1a"
}
layer {
  name: "stage1_1_branch1b"
  type: "Convolution"
  bottom: "stage1_1_branch1a"
  top: "stage1_1_branch1b"
  convolution_param {
    num_output: 8
    bias_term: false
    pad: 1
    kernel_size: 3
    stride: 1
    weight_filler {
      type: "xavier"
    }
    bias_filler {
      type: "constant"
    }
  }
}
layer {
  name: "stage1_1_branch1b_bn"
  type: "BatchNorm"
  bottom: "stage1_1_branch1b"
  top: "stage1_1_branch1b"
  batch_norm_param {
    moving_average_fraction: 0.999
    eps: 0.001
  }
}
layer {
  name: "stage1_1_branch1b_scale"
  type: "Scale"
  bottom: "stage1_1_branch1b"
  top: "stage1_1_branch1b"
  scale_param {
    filler {
      value: 1
    }
    bias_term: true
    bias_filler {
      value: 0
    }
  }
}
layer {
  name: "stage1_1_branch1b_relu"
  type: "ReLU"
  bottom: "stage1_1_branch1b"
  top: "stage1_1_branch1b"
}
layer {
  name: "stage1_1_branch2a"
  type: "Convolution"
  bottom: "stem3"
  top: "stage1_1_branch2a"
  convolution_param {
    num_output: 8
    bias_term: false
    pad: 0
    kernel_size: 1
    stride: 1
    weight_filler {
      type: "xavier"
    }
    bias_filler {
      type: "constant"
    }
  }
}
layer {
  name: "stage1_1_branch2a_bn"
  type: "BatchNorm"
  bottom: "stage1_1_branch2a"
  top: "stage1_1_branch2a"
  batch_norm_param {
    moving_average_fraction: 0.999
    eps: 0.001
  }
}
layer {
  name: "stage1_1_branch2a_scale"
  type: "Scale"
  bottom: "stage1_1_branch2a"
  top: "stage1_1_branch2a"
  scale_param {
    filler {
      value: 1
    }
    bias_term: true
    bias_filler {
      value: 0
    }
  }
}
layer {
  name: "stage1_1_branch2a_relu"
  type: "ReLU"
  bottom: "stage1_1_branch2a"
  top: "stage1_1_branch2a"
}
layer {
  name: "stage1_1_branch2b"
  type: "Convolution"
  bottom: "stage1_1_branch2a"
  top: "stage1_1_branch2b"
  convolution_param {
    num_output: 8
    bias_term: false
    pad: 1
    kernel_size: 3
    stride: 1
    weight_filler {
      type: "xavier"
    }
    bias_filler {
      type: "constant"
    }
  }
}
layer {
  name: "stage1_1_branch2b_bn"
  type: "BatchNorm"
  bottom: "stage1_1_branch2b"
  top: "stage1_1_branch2b"
  batch_norm_param {
    moving_average_fraction: 0.999
    eps: 0.001
  }
}
layer {
  name: "stage1_1_branch2b_scale"
  type: "Scale"
  bottom: "stage1_1_branch2b"
  top: "stage1_1_branch2b"
  scale_param {
    filler {
      value: 1
    }
    bias_term: true
    bias_filler {
      value: 0
    }
  }
}
layer {
  name: "stage1_1_branch2b_relu"
  type: "ReLU"
  bottom: "stage1_1_branch2b"
  top: "stage1_1_branch2b"
}
layer {
  name: "stage1_1_branch2c"
  type: "Convolution"
  bottom: "stage1_1_branch2b"
  top: "stage1_1_branch2c"
  convolution_param {
    num_output: 8
    bias_term: false
    pad: 1
    kernel_size: 3
    stride: 1
    weight_filler {
      type: "xavier"
    }
    bias_filler {
      type: "constant"
    }
  }
}
layer {
  name: "stage1_1_branch2c_bn"
  type: "BatchNorm"
  bottom: "stage1_1_branch2c"
  top: "stage1_1_branch2c"
  batch_norm_param {
    moving_average_fraction: 0.999
    eps: 0.001
  }
}
layer {
  name: "stage1_1_branch2c_scale"
  type: "Scale"
  bottom: "stage1_1_branch2c"
  top: "stage1_1_branch2c"
  scale_param {
    filler {
      value: 1
    }
    bias_term: true
    bias_filler {
      value: 0
    }
  }
}
layer {
  name: "stage1_1_branch2c_relu"
  type: "ReLU"
  bottom: "stage1_1_branch2c"
  top: "stage1_1_branch2c"
}
layer {
  name: "stage1_1_concat"
  type: "Concat"
  bottom: "stem3"
  bottom: "stage1_1_branch1b"
  bottom: "stage1_1_branch2c"
  top: "stage1_1_concat"
  concat_param {
    axis: 1
  }
}
layer {
  name: "stage1_tb"
  type: "Convolution"
  bottom: "stage1_1_concat"
  top: "stage1_tb"
  convolution_param {
    num_output: 48
    bias_term: false
    pad: 0
    kernel_size: 1
    stride: 1
    weight_filler {
      type: "xavier"
    }
    bias_filler {
      type: "constant"
    }
  }
}
layer {
  name: "stage1_tb_bn"
  type: "BatchNorm"
  bottom: "stage1_tb"
  top: "stage1_tb"
  batch_norm_param {
    moving_average_fraction: 0.999
    eps: 0.001
  }
}
layer {
  name: "stage1_tb_scale"
  type: "Scale"
  bottom: "stage1_tb"
  top: "stage1_tb"
  scale_param {
    filler {
      value: 1
    }
    bias_term: true
    bias_filler {
      value: 0
    }
  }
}
layer {
  name: "stage1_tb_relu"
  type: "ReLU"
  bottom: "stage1_tb"
  top: "stage1_tb"
}
layer {
  name: "stage1_tb_pool"
  type: "Pooling"
  bottom: "stage1_tb"
  top: "stage1_tb_pool"
  pooling_param {
    pool: AVE
    kernel_size: 2
    stride: 2
  }
}
layer {
  name: "stage2_1_branch1a"
  type: "Convolution"
  bottom: "stage1_tb_pool"
  top: "stage2_1_branch1a"
  convolution_param {
    num_output: 16
    bias_term: false
    pad: 0
    kernel_size: 1
    stride: 1
    weight_filler {
      type: "xavier"
    }
    bias_filler {
      type: "constant"
    }
  }
}
layer {
  name: "stage2_1_branch1a_bn"
  type: "BatchNorm"
  bottom: "stage2_1_branch1a"
  top: "stage2_1_branch1a"
  batch_norm_param {
    moving_average_fraction: 0.999
    eps: 0.001
  }
}
layer {
  name: "stage2_1_branch1a_scale"
  type: "Scale"
  bottom: "stage2_1_branch1a"
  top: "stage2_1_branch1a"
  scale_param {
    filler {
      value: 1
    }
    bias_term: true
    bias_filler {
      value: 0
    }
  }
}
layer {
  name: "stage2_1_branch1a_relu"
  type: "ReLU"
  bottom: "stage2_1_branch1a"
  top: "stage2_1_branch1a"
}
layer {
  name: "stage2_1_branch1b"
  type: "Convolution"
  bottom: "stage2_1_branch1a"
  top: "stage2_1_branch1b"
  convolution_param {
    num_output: 8
    bias_term: false
    pad: 1
    kernel_size: 3
    stride: 1
    weight_filler {
      type: "xavier"
    }
    bias_filler {
      type: "constant"
    }
  }
}
layer {
  name: "stage2_1_branch1b_bn"
  type: "BatchNorm"
  bottom: "stage2_1_branch1b"
  top: "stage2_1_branch1b"
  batch_norm_param {
    moving_average_fraction: 0.999
    eps: 0.001
  }
}
layer {
  name: "stage2_1_branch1b_scale"
  type: "Scale"
  bottom: "stage2_1_branch1b"
  top: "stage2_1_branch1b"
  scale_param {
    filler {
      value: 1
    }
    bias_term: true
    bias_filler {
      value: 0
    }
  }
}
layer {
  name: "stage2_1_branch1b_relu"
  type: "ReLU"
  bottom: "stage2_1_branch1b"
  top: "stage2_1_branch1b"
}
layer {
  name: "stage2_1_branch2a"
  type: "Convolution"
  bottom: "stage1_tb_pool"
  top: "stage2_1_branch2a"
  convolution_param {
    num_output: 16
    bias_term: false
    pad: 0
    kernel_size: 1
    stride: 1
    weight_filler {
      type: "xavier"
    }
    bias_filler {
      type: "constant"
    }
  }
}
layer {
  name: "stage2_1_branch2a_bn"
  type: "BatchNorm"
  bottom: "stage2_1_branch2a"
  top: "stage2_1_branch2a"
  batch_norm_param {
    moving_average_fraction: 0.999
    eps: 0.001
  }
}
layer {
  name: "stage2_1_branch2a_scale"
  type: "Scale"
  bottom: "stage2_1_branch2a"
  top: "stage2_1_branch2a"
  scale_param {
    filler {
      value: 1
    }
    bias_term: true
    bias_filler {
      value: 0
    }
  }
}
layer {
  name: "stage2_1_branch2a_relu"
  type: "ReLU"
  bottom: "stage2_1_branch2a"
  top: "stage2_1_branch2a"
}
layer {
  name: "stage2_1_branch2b"
  type: "Convolution"
  bottom: "stage2_1_branch2a"
  top: "stage2_1_branch2b"
  convolution_param {
    num_output: 8
    bias_term: false
    pad: 1
    kernel_size: 3
    stride: 1
    weight_filler {
      type: "xavier"
    }
    bias_filler {
      type: "constant"
    }
  }
}
layer {
  name: "stage2_1_branch2b_bn"
  type: "BatchNorm"
  bottom: "stage2_1_branch2b"
  top: "stage2_1_branch2b"
  batch_norm_param {
    moving_average_fraction: 0.999
    eps: 0.001
  }
}
layer {
  name: "stage2_1_branch2b_scale"
  type: "Scale"
  bottom: "stage2_1_branch2b"
  top: "stage2_1_branch2b"
  scale_param {
    filler {
      value: 1
    }
    bias_term: true
    bias_filler {
      value: 0
    }
  }
}
layer {
  name: "stage2_1_branch2b_relu"
  type: "ReLU"
  bottom: "stage2_1_branch2b"
  top: "stage2_1_branch2b"
}
layer {
  name: "stage2_1_branch2c"
  type: "Convolution"
  bottom: "stage2_1_branch2b"
  top: "stage2_1_branch2c"
  convolution_param {
    num_output: 8
    bias_term: false
    pad: 1
    kernel_size: 3
    stride: 1
    weight_filler {
      type: "xavier"
    }
    bias_filler {
      type: "constant"
    }
  }
}
layer {
  name: "stage2_1_branch2c_bn"
  type: "BatchNorm"
  bottom: "stage2_1_branch2c"
  top: "stage2_1_branch2c"
  batch_norm_param {
    moving_average_fraction: 0.999
    eps: 0.001
  }
}
layer {
  name: "stage2_1_branch2c_scale"
  type: "Scale"
  bottom: "stage2_1_branch2c"
  top: "stage2_1_branch2c"
  scale_param {
    filler {
      value: 1
    }
    bias_term: true
    bias_filler {
      value: 0
    }
  }
}
layer {
  name: "stage2_1_branch2c_relu"
  type: "ReLU"
  bottom: "stage2_1_branch2c"
  top: "stage2_1_branch2c"
}
layer {
  name: "stage2_1_concat"
  type: "Concat"
  bottom: "stage1_tb_pool"
  bottom: "stage2_1_branch1b"
  bottom: "stage2_1_branch2c"
  top: "stage2_1_concat"
  concat_param {
    axis: 1
  }
}
layer {
  name: "stage2_2_branch1a"
  type: "Convolution"
  bottom: "stage2_1_concat"
  top: "stage2_2_branch1a"
  convolution_param {
    num_output: 16
    bias_term: false
    pad: 0
    kernel_size: 1
    stride: 1
    weight_filler {
      type: "xavier"
    }
    bias_filler {
      type: "constant"
    }
  }
}
layer {
  name: "stage2_2_branch1a_bn"
  type: "BatchNorm"
  bottom: "stage2_2_branch1a"
  top: "stage2_2_branch1a"
  batch_norm_param {
    moving_average_fraction: 0.999
    eps: 0.001
  }
}
layer {
  name: "stage2_2_branch1a_scale"
  type: "Scale"
  bottom: "stage2_2_branch1a"
  top: "stage2_2_branch1a"
  scale_param {
    filler {
      value: 1
    }
    bias_term: true
    bias_filler {
      value: 0
    }
  }
}
layer {
  name: "stage2_2_branch1a_relu"
  type: "ReLU"
  bottom: "stage2_2_branch1a"
  top: "stage2_2_branch1a"
}
layer {
  name: "stage2_2_branch1b"
  type: "Convolution"
  bottom: "stage2_2_branch1a"
  top: "stage2_2_branch1b"
  convolution_param {
    num_output: 8
    bias_term: false
    pad: 1
    kernel_size: 3
    stride: 1
    weight_filler {
      type: "xavier"
    }
    bias_filler {
      type: "constant"
    }
  }
}
layer {
  name: "stage2_2_branch1b_bn"
  type: "BatchNorm"
  bottom: "stage2_2_branch1b"
  top: "stage2_2_branch1b"
  batch_norm_param {
    moving_average_fraction: 0.999
    eps: 0.001
  }
}
layer {
  name: "stage2_2_branch1b_scale"
  type: "Scale"
  bottom: "stage2_2_branch1b"
  top: "stage2_2_branch1b"
  scale_param {
    filler {
      value: 1
    }
    bias_term: true
    bias_filler {
      value: 0
    }
  }
}
layer {
  name: "stage2_2_branch1b_relu"
  type: "ReLU"
  bottom: "stage2_2_branch1b"
  top: "stage2_2_branch1b"
}
layer {
  name: "stage2_2_branch2a"
  type: "Convolution"
  bottom: "stage2_1_concat"
  top: "stage2_2_branch2a"
  convolution_param {
    num_output: 16
    bias_term: false
    pad: 0
    kernel_size: 1
    stride: 1
    weight_filler {
      type: "xavier"
    }
    bias_filler {
      type: "constant"
    }
  }
}
layer {
  name: "stage2_2_branch2a_bn"
  type: "BatchNorm"
  bottom: "stage2_2_branch2a"
  top: "stage2_2_branch2a"
  batch_norm_param {
    moving_average_fraction: 0.999
    eps: 0.001
  }
}
layer {
  name: "stage2_2_branch2a_scale"
  type: "Scale"
  bottom: "stage2_2_branch2a"
  top: "stage2_2_branch2a"
  scale_param {
    filler {
      value: 1
    }
    bias_term: true
    bias_filler {
      value: 0
    }
  }
}
layer {
  name: "stage2_2_branch2a_relu"
  type: "ReLU"
  bottom: "stage2_2_branch2a"
  top: "stage2_2_branch2a"
}
layer {
  name: "stage2_2_branch2b"
  type: "Convolution"
  bottom: "stage2_2_branch2a"
  top: "stage2_2_branch2b"
  convolution_param {
    num_output: 8
    bias_term: false
    pad: 1
    kernel_size: 3
    stride: 1
    weight_filler {
      type: "xavier"
    }
    bias_filler {
      type: "constant"
    }
  }
}
layer {
  name: "stage2_2_branch2b_bn"
  type: "BatchNorm"
  bottom: "stage2_2_branch2b"
  top: "stage2_2_branch2b"
  batch_norm_param {
    moving_average_fraction: 0.999
    eps: 0.001
  }
}
layer {
  name: "stage2_2_branch2b_scale"
  type: "Scale"
  bottom: "stage2_2_branch2b"
  top: "stage2_2_branch2b"
  scale_param {
    filler {
      value: 1
    }
    bias_term: true
    bias_filler {
      value: 0
    }
  }
}
layer {
  name: "stage2_2_branch2b_relu"
  type: "ReLU"
  bottom: "stage2_2_branch2b"
  top: "stage2_2_branch2b"
}
layer {
  name: "stage2_2_branch2c"
  type: "Convolution"
  bottom: "stage2_2_branch2b"
  top: "stage2_2_branch2c"
  convolution_param {
    num_output: 8
    bias_term: false
    pad: 1
    kernel_size: 3
    stride: 1
    weight_filler {
      type: "xavier"
    }
    bias_filler {
      type: "constant"
    }
  }
}
layer {
  name: "stage2_2_branch2c_bn"
  type: "BatchNorm"
  bottom: "stage2_2_branch2c"
  top: "stage2_2_branch2c"
  batch_norm_param {
    moving_average_fraction: 0.999
    eps: 0.001
  }
}
layer {
  name: "stage2_2_branch2c_scale"
  type: "Scale"
  bottom: "stage2_2_branch2c"
  top: "stage2_2_branch2c"
  scale_param {
    filler {
      value: 1
    }
    bias_term: true
    bias_filler {
      value: 0
    }
  }
}
layer {
  name: "stage2_2_branch2c_relu"
  type: "ReLU"
  bottom: "stage2_2_branch2c"
  top: "stage2_2_branch2c"
}
layer {
  name: "stage2_2_concat"
  type: "Concat"
  bottom: "stage2_1_concat"
  bottom: "stage2_2_branch1b"
  bottom: "stage2_2_branch2c"
  top: "stage2_2_concat"
  concat_param {
    axis: 1
  }
}
layer {
  name: "stage2_tb"
  type: "Convolution"
  bottom: "stage2_2_concat"
  top: "stage2_tb"
  convolution_param {
    num_output: 80
    bias_term: false
    pad: 0
    kernel_size: 1
    stride: 1
    weight_filler {
      type: "xavier"
    }
    bias_filler {
      type: "constant"
    }
  }
}
layer {
  name: "stage2_tb_bn"
  type: "BatchNorm"
  bottom: "stage2_tb"
  top: "stage2_tb"
  batch_norm_param {
    moving_average_fraction: 0.999
    eps: 0.001
  }
}
layer {
  name: "stage2_tb_scale"
  type: "Scale"
  bottom: "stage2_tb"
  top: "stage2_tb"
  scale_param {
    filler {
      value: 1
    }
    bias_term: true
    bias_filler {
      value: 0
    }
  }
}
layer {
  name: "stage2_tb_relu"
  type: "ReLU"
  bottom: "stage2_tb"
  top: "stage2_tb"
}
layer {
  name: "stage2_tb_pool"
  type: "Pooling"
  bottom: "stage2_tb"
  top: "stage2_tb_pool"
  pooling_param {
    pool: AVE
    kernel_size: 2
    stride: 2
  }
}
layer {
  name: "stage3_1_branch1a"
  type: "Convolution"
  bottom: "stage2_tb_pool"
  top: "stage3_1_branch1a"
  convolution_param {
    num_output: 16
    bias_term: false
    pad: 0
    kernel_size: 1
    stride: 1
    weight_filler {
      type: "xavier"
    }
    bias_filler {
      type: "constant"
    }
  }
}
layer {
  name: "stage3_1_branch1a_bn"
  type: "BatchNorm"
  bottom: "stage3_1_branch1a"
  top: "stage3_1_branch1a"
  batch_norm_param {
    moving_average_fraction: 0.999
    eps: 0.001
  }
}
layer {
  name: "stage3_1_branch1a_scale"
  type: "Scale"
  bottom: "stage3_1_branch1a"
  top: "stage3_1_branch1a"
  scale_param {
    filler {
      value: 1
    }
    bias_term: true
    bias_filler {
      value: 0
    }
  }
}
layer {
  name: "stage3_1_branch1a_relu"
  type: "ReLU"
  bottom: "stage3_1_branch1a"
  top: "stage3_1_branch1a"
}
layer {
  name: "stage3_1_branch1b"
  type: "Convolution"
  bottom: "stage3_1_branch1a"
  top: "stage3_1_branch1b"
  convolution_param {
    num_output: 8
    bias_term: false
    pad: 1
    kernel_size: 3
    stride: 1
    weight_filler {
      type: "xavier"
    }
    bias_filler {
      type: "constant"
    }
  }
}
layer {
  name: "stage3_1_branch1b_bn"
  type: "BatchNorm"
  bottom: "stage3_1_branch1b"
  top: "stage3_1_branch1b"
  batch_norm_param {
    moving_average_fraction: 0.999
    eps: 0.001
  }
}
layer {
  name: "stage3_1_branch1b_scale"
  type: "Scale"
  bottom: "stage3_1_branch1b"
  top: "stage3_1_branch1b"
  scale_param {
    filler {
      value: 1
    }
    bias_term: true
    bias_filler {
      value: 0
    }
  }
}
layer {
  name: "stage3_1_branch1b_relu"
  type: "ReLU"
  bottom: "stage3_1_branch1b"
  top: "stage3_1_branch1b"
}
layer {
  name: "stage3_1_branch2a"
  type: "Convolution"
  bottom: "stage2_tb_pool"
  top: "stage3_1_branch2a"
  convolution_param {
    num_output: 16
    bias_term: false
    pad: 0
    kernel_size: 1
    stride: 1
    weight_filler {
      type: "xavier"
    }
    bias_filler {
      type: "constant"
    }
  }
}
layer {
  name: "stage3_1_branch2a_bn"
  type: "BatchNorm"
  bottom: "stage3_1_branch2a"
  top: "stage3_1_branch2a"
  batch_norm_param {
    moving_average_fraction: 0.999
    eps: 0.001
  }
}
layer {
  name: "stage3_1_branch2a_scale"
  type: "Scale"
  bottom: "stage3_1_branch2a"
  top: "stage3_1_branch2a"
  scale_param {
    filler {
      value: 1
    }
    bias_term: true
    bias_filler {
      value: 0
    }
  }
}
layer {
  name: "stage3_1_branch2a_relu"
  type: "ReLU"
  bottom: "stage3_1_branch2a"
  top: "stage3_1_branch2a"
}
layer {
  name: "stage3_1_branch2b"
  type: "Convolution"
  bottom: "stage3_1_branch2a"
  top: "stage3_1_branch2b"
  convolution_param {
    num_output: 8
    bias_term: false
    pad: 1
    kernel_size: 3
    stride: 1
    weight_filler {
      type: "xavier"
    }
    bias_filler {
      type: "constant"
    }
  }
}
layer {
  name: "stage3_1_branch2b_bn"
  type: "BatchNorm"
  bottom: "stage3_1_branch2b"
  top: "stage3_1_branch2b"
  batch_norm_param {
    moving_average_fraction: 0.999
    eps: 0.001
  }
}
layer {
  name: "stage3_1_branch2b_scale"
  type: "Scale"
  bottom: "stage3_1_branch2b"
  top: "stage3_1_branch2b"
  scale_param {
    filler {
      value: 1
    }
    bias_term: true
    bias_filler {
      value: 0
    }
  }
}
layer {
  name: "stage3_1_branch2b_relu"
  type: "ReLU"
  bottom: "stage3_1_branch2b"
  top: "stage3_1_branch2b"
}
layer {
  name: "stage3_1_branch2c"
  type: "Convolution"
  bottom: "stage3_1_branch2b"
  top: "stage3_1_branch2c"
  convolution_param {
    num_output: 8
    bias_term: false
    pad: 1
    kernel_size: 3
    stride: 1
    weight_filler {
      type: "xavier"
    }
    bias_filler {
      type: "constant"
    }
  }
}
layer {
  name: "stage3_1_branch2c_bn"
  type: "BatchNorm"
  bottom: "stage3_1_branch2c"
  top: "stage3_1_branch2c"
  batch_norm_param {
    moving_average_fraction: 0.999
    eps: 0.001
  }
}
layer {
  name: "stage3_1_branch2c_scale"
  type: "Scale"
  bottom: "stage3_1_branch2c"
  top: "stage3_1_branch2c"
  scale_param {
    filler {
      value: 1
    }
    bias_term: true
    bias_filler {
      value: 0
    }
  }
}
layer {
  name: "stage3_1_branch2c_relu"
  type: "ReLU"
  bottom: "stage3_1_branch2c"
  top: "stage3_1_branch2c"
}
layer {
  name: "stage3_1_concat"
  type: "Concat"
  bottom: "stage2_tb_pool"
  bottom: "stage3_1_branch1b"
  bottom: "stage3_1_branch2c"
  top: "stage3_1_concat"
  concat_param {
    axis: 1
  }
}
layer {
  name: "stage3_2_branch1a"
  type: "Convolution"
  bottom: "stage3_1_concat"
  top: "stage3_2_branch1a"
  convolution_param {
    num_output: 16
    bias_term: false
    pad: 0
    kernel_size: 1
    stride: 1
    weight_filler {
      type: "xavier"
    }
    bias_filler {
      type: "constant"
    }
  }
}
layer {
  name: "stage3_2_branch1a_bn"
  type: "BatchNorm"
  bottom: "stage3_2_branch1a"
  top: "stage3_2_branch1a"
  batch_norm_param {
    moving_average_fraction: 0.999
    eps: 0.001
  }
}
layer {
  name: "stage3_2_branch1a_scale"
  type: "Scale"
  bottom: "stage3_2_branch1a"
  top: "stage3_2_branch1a"
  scale_param {
    filler {
      value: 1
    }
    bias_term: true
    bias_filler {
      value: 0
    }
  }
}
layer {
  name: "stage3_2_branch1a_relu"
  type: "ReLU"
  bottom: "stage3_2_branch1a"
  top: "stage3_2_branch1a"
}
layer {
  name: "stage3_2_branch1b"
  type: "Convolution"
  bottom: "stage3_2_branch1a"
  top: "stage3_2_branch1b"
  convolution_param {
    num_output: 8
    bias_term: false
    pad: 1
    kernel_size: 3
    stride: 1
    weight_filler {
      type: "xavier"
    }
    bias_filler {
      type: "constant"
    }
  }
}
layer {
  name: "stage3_2_branch1b_bn"
  type: "BatchNorm"
  bottom: "stage3_2_branch1b"
  top: "stage3_2_branch1b"
  batch_norm_param {
    moving_average_fraction: 0.999
    eps: 0.001
  }
}
layer {
  name: "stage3_2_branch1b_scale"
  type: "Scale"
  bottom: "stage3_2_branch1b"
  top: "stage3_2_branch1b"
  scale_param {
    filler {
      value: 1
    }
    bias_term: true
    bias_filler {
      value: 0
    }
  }
}
layer {
  name: "stage3_2_branch1b_relu"
  type: "ReLU"
  bottom: "stage3_2_branch1b"
  top: "stage3_2_branch1b"
}
layer {
  name: "stage3_2_branch2a"
  type: "Convolution"
  bottom: "stage3_1_concat"
  top: "stage3_2_branch2a"
  convolution_param {
    num_output: 16
    bias_term: false
    pad: 0
    kernel_size: 1
    stride: 1
    weight_filler {
      type: "xavier"
    }
    bias_filler {
      type: "constant"
    }
  }
}
layer {
  name: "stage3_2_branch2a_bn"
  type: "BatchNorm"
  bottom: "stage3_2_branch2a"
  top: "stage3_2_branch2a"
  batch_norm_param {
    moving_average_fraction: 0.999
    eps: 0.001
  }
}
layer {
  name: "stage3_2_branch2a_scale"
  type: "Scale"
  bottom: "stage3_2_branch2a"
  top: "stage3_2_branch2a"
  scale_param {
    filler {
      value: 1
    }
    bias_term: true
    bias_filler {
      value: 0
    }
  }
}
layer {
  name: "stage3_2_branch2a_relu"
  type: "ReLU"
  bottom: "stage3_2_branch2a"
  top: "stage3_2_branch2a"
}
layer {
  name: "stage3_2_branch2b"
  type: "Convolution"
  bottom: "stage3_2_branch2a"
  top: "stage3_2_branch2b"
  convolution_param {
    num_output: 8
    bias_term: false
    pad: 1
    kernel_size: 3
    stride: 1
    weight_filler {
      type: "xavier"
    }
    bias_filler {
      type: "constant"
    }
  }
}
layer {
  name: "stage3_2_branch2b_bn"
  type: "BatchNorm"
  bottom: "stage3_2_branch2b"
  top: "stage3_2_branch2b"
  batch_norm_param {
    moving_average_fraction: 0.999
    eps: 0.001
  }
}
layer {
  name: "stage3_2_branch2b_scale"
  type: "Scale"
  bottom: "stage3_2_branch2b"
  top: "stage3_2_branch2b"
  scale_param {
    filler {
      value: 1
    }
    bias_term: true
    bias_filler {
      value: 0
    }
  }
}
layer {
  name: "stage3_2_branch2b_relu"
  type: "ReLU"
  bottom: "stage3_2_branch2b"
  top: "stage3_2_branch2b"
}
layer {
  name: "stage3_2_branch2c"
  type: "Convolution"
  bottom: "stage3_2_branch2b"
  top: "stage3_2_branch2c"
  convolution_param {
    num_output: 8
    bias_term: false
    pad: 1
    kernel_size: 3
    stride: 1
    weight_filler {
      type: "xavier"
    }
    bias_filler {
      type: "constant"
    }
  }
}
layer {
  name: "stage3_2_branch2c_bn"
  type: "BatchNorm"
  bottom: "stage3_2_branch2c"
  top: "stage3_2_branch2c"
  batch_norm_param {
    moving_average_fraction: 0.999
    eps: 0.001
  }
}
layer {
  name: "stage3_2_branch2c_scale"
  type: "Scale"
  bottom: "stage3_2_branch2c"
  top: "stage3_2_branch2c"
  scale_param {
    filler {
      value: 1
    }
    bias_term: true
I1216 19:12:21.943809 28860 layer_factory.hpp:77] Creating layer data
I1216 19:12:21.944025 28860 net.cpp:100] Creating Layer data
I1216 19:12:21.944041 28860 net.cpp:408] data -> data
I1216 19:12:21.944139 28860 net.cpp:408] data -> label
I1216 19:12:21.949782 28868 db_lmdb.cpp:35] Opened lmdb examples/zhili_coco_posneg/zhili_coco_posneg_train_lmdb
I1216 19:12:21.983912 28860 annotated_data_layer.cpp:62] output data size: 30,3,512,512
I1216 19:12:22.180693 28860 net.cpp:150] Setting up data
I1216 19:12:22.180734 28860 net.cpp:157] Top shape: 30 3 512 512 (23592960)
I1216 19:12:22.180739 28860 net.cpp:157] Top shape: 1 1 8 8 (64)
I1216 19:12:22.180742 28860 net.cpp:165] Memory required for data: 94372096
I1216 19:12:22.180755 28860 layer_factory.hpp:77] Creating layer data_data_0_split
I1216 19:12:22.180773 28860 net.cpp:100] Creating Layer data_data_0_split
I1216 19:12:22.180779 28860 net.cpp:434] data_data_0_split <- data
I1216 19:12:22.180794 28860 net.cpp:408] data_data_0_split -> data_data_0_split_0
I1216 19:12:22.180807 28860 net.cpp:408] data_data_0_split -> data_data_0_split_1
I1216 19:12:22.180819 28860 net.cpp:408] data_data_0_split -> data_data_0_split_2
I1216 19:12:22.180827 28860 net.cpp:408] data_data_0_split -> data_data_0_split_3
I1216 19:12:22.180832 28860 net.cpp:408] data_data_0_split -> data_data_0_split_4
I1216 19:12:22.180923 28860 net.cpp:150] Setting up data_data_0_split
I1216 19:12:22.180932 28860 net.cpp:157] Top shape: 30 3 512 512 (23592960)
I1216 19:12:22.180953 28860 net.cpp:157] Top shape: 30 3 512 512 (23592960)
I1216 19:12:22.180958 28860 net.cpp:157] Top shape: 30 3 512 512 (23592960)
I1216 19:12:22.180963 28860 net.cpp:157] Top shape: 30 3 512 512 (23592960)
I1216 19:12:22.180966 28860 net.cpp:157] Top shape: 30 3 512 512 (23592960)
I1216 19:12:22.180969 28860 net.cpp:165] Memory required for data: 566231296
I1216 19:12:22.180974 28860 layer_factory.hpp:77] Creating layer label_data_1_split
I1216 19:12:22.180980 28860 net.cpp:100] Creating Layer label_data_1_split
I1216 19:12:22.180984 28860 net.cpp:434] label_data_1_split <- label
I1216 19:12:22.180990 28860 net.cpp:408] label_data_1_split -> label_data_1_split_0
I1216 19:12:22.180996 28860 net.cpp:408] label_data_1_split -> label_data_1_split_1
I1216 19:12:22.181103 28860 net.cpp:150] Setting up label_data_1_split
I1216 19:12:22.181111 28860 net.cpp:157] Top shape: 1 1 8 8 (64)
I1216 19:12:22.181115 28860 net.cpp:157] Top shape: 1 1 8 8 (64)
I1216 19:12:22.181118 28860 net.cpp:165] Memory required for data: 566231808
I1216 19:12:22.181121 28860 layer_factory.hpp:77] Creating layer stem1
I1216 19:12:22.181139 28860 net.cpp:100] Creating Layer stem1
I1216 19:12:22.181144 28860 net.cpp:434] stem1 <- data_data_0_split_0
I1216 19:12:22.181151 28860 net.cpp:408] stem1 -> stem1
I1216 19:12:23.224154 28860 net.cpp:150] Setting up stem1
I1216 19:12:23.224231 28860 net.cpp:157] Top shape: 30 32 256 256 (62914560)
I1216 19:12:23.224236 28860 net.cpp:165] Memory required for data: 817890048
I1216 19:12:23.224272 28860 layer_factory.hpp:77] Creating layer stem1_bn
I1216 19:12:23.224328 28860 net.cpp:100] Creating Layer stem1_bn
I1216 19:12:23.224336 28860 net.cpp:434] stem1_bn <- stem1
I1216 19:12:23.224346 28860 net.cpp:395] stem1_bn -> stem1 (in-place)
I1216 19:12:23.229225 28860 net.cpp:150] Setting up stem1_bn
I1216 19:12:23.229244 28860 net.cpp:157] Top shape: 30 32 256 256 (62914560)
I1216 19:12:23.229249 28860 net.cpp:165] Memory required for data: 1069548288
I1216 19:12:23.229279 28860 layer_factory.hpp:77] Creating layer stem1_scale
I1216 19:12:23.229290 28860 net.cpp:100] Creating Layer stem1_scale
I1216 19:12:23.229295 28860 net.cpp:434] stem1_scale <- stem1
I1216 19:12:23.229301 28860 net.cpp:395] stem1_scale -> stem1 (in-place)
I1216 19:12:23.229374 28860 layer_factory.hpp:77] Creating layer stem1_scale
I1216 19:12:23.229607 28860 net.cpp:150] Setting up stem1_scale
I1216 19:12:23.229619 28860 net.cpp:157] Top shape: 30 32 256 256 (62914560)
I1216 19:12:23.229621 28860 net.cpp:165] Memory required for data: 1321206528
I1216 19:12:23.229631 28860 layer_factory.hpp:77] Creating layer stem1_relu
I1216 19:12:23.229660 28860 net.cpp:100] Creating Layer stem1_relu
I1216 19:12:23.229666 28860 net.cpp:434] stem1_relu <- stem1
I1216 19:12:23.229672 28860 net.cpp:395] stem1_relu -> stem1 (in-place)
I1216 19:12:23.230259 28860 net.cpp:150] Setting up stem1_relu
I1216 19:12:23.230271 28860 net.cpp:157] Top shape: 30 32 256 256 (62914560)
I1216 19:12:23.230276 28860 net.cpp:165] Memory required for data: 1572864768
I1216 19:12:23.230280 28860 layer_factory.hpp:77] Creating layer stem1_stem1_relu_0_split
I1216 19:12:23.230288 28860 net.cpp:100] Creating Layer stem1_stem1_relu_0_split
I1216 19:12:23.230293 28860 net.cpp:434] stem1_stem1_relu_0_split <- stem1
I1216 19:12:23.230303 28860 net.cpp:408] stem1_stem1_relu_0_split -> stem1_stem1_relu_0_split_0
I1216 19:12:23.230311 28860 net.cpp:408] stem1_stem1_relu_0_split -> stem1_stem1_relu_0_split_1
I1216 19:12:23.230381 28860 net.cpp:150] Setting up stem1_stem1_relu_0_split
I1216 19:12:23.230389 28860 net.cpp:157] Top shape: 30 32 256 256 (62914560)
I1216 19:12:23.230396 28860 net.cpp:157] Top shape: 30 32 256 256 (62914560)
I1216 19:12:23.230398 28860 net.cpp:165] Memory required for data: 2076181248
I1216 19:12:23.230402 28860 layer_factory.hpp:77] Creating layer stem2a
I1216 19:12:23.230427 28860 net.cpp:100] Creating Layer stem2a
I1216 19:12:23.230433 28860 net.cpp:434] stem2a <- stem1_stem1_relu_0_split_0
I1216 19:12:23.230440 28860 net.cpp:408] stem2a -> stem2a
I1216 19:12:23.236109 28860 net.cpp:150] Setting up stem2a
I1216 19:12:23.236140 28860 net.cpp:157] Top shape: 30 16 256 256 (31457280)
I1216 19:12:23.236150 28860 net.cpp:165] Memory required for data: 2202010368
I1216 19:12:23.236163 28860 layer_factory.hpp:77] Creating layer stem2a_bn
I1216 19:12:23.236176 28860 net.cpp:100] Creating Layer stem2a_bn
I1216 19:12:23.236184 28860 net.cpp:434] stem2a_bn <- stem2a
I1216 19:12:23.236198 28860 net.cpp:395] stem2a_bn -> stem2a (in-place)
I1216 19:12:23.236651 28860 net.cpp:150] Setting up stem2a_bn
I1216 19:12:23.236661 28860 net.cpp:157] Top shape: 30 16 256 256 (31457280)
I1216 19:12:23.236665 28860 net.cpp:165] Memory required for data: 2327839488
I1216 19:12:23.236681 28860 layer_factory.hpp:77] Creating layer stem2a_scale
I1216 19:12:23.236690 28860 net.cpp:100] Creating Layer stem2a_scale
I1216 19:12:23.236693 28860 net.cpp:434] stem2a_scale <- stem2a
I1216 19:12:23.236698 28860 net.cpp:395] stem2a_scale -> stem2a (in-place)
I1216 19:12:23.236744 28860 layer_factory.hpp:77] Creating layer stem2a_scale
I1216 19:12:23.236963 28860 net.cpp:150] Setting up stem2a_scale
I1216 19:12:23.236973 28860 net.cpp:157] Top shape: 30 16 256 256 (31457280)
I1216 19:12:23.236975 28860 net.cpp:165] Memory required for data: 2453668608
I1216 19:12:23.236984 28860 layer_factory.hpp:77] Creating layer stem2a_relu
I1216 19:12:23.236989 28860 net.cpp:100] Creating Layer stem2a_relu
I1216 19:12:23.236994 28860 net.cpp:434] stem2a_relu <- stem2a
I1216 19:12:23.237000 28860 net.cpp:395] stem2a_relu -> stem2a (in-place)
I1216 19:12:23.237607 28860 net.cpp:150] Setting up stem2a_relu
I1216 19:12:23.237619 28860 net.cpp:157] Top shape: 30 16 256 256 (31457280)
I1216 19:12:23.237623 28860 net.cpp:165] Memory required for data: 2579497728
I1216 19:12:23.237627 28860 layer_factory.hpp:77] Creating layer stem2b
I1216 19:12:23.237637 28860 net.cpp:100] Creating Layer stem2b
I1216 19:12:23.237643 28860 net.cpp:434] stem2b <- stem2a
I1216 19:12:23.237649 28860 net.cpp:408] stem2b -> stem2b
I1216 19:12:23.249150 28860 net.cpp:150] Setting up stem2b
I1216 19:12:23.249172 28860 net.cpp:157] Top shape: 30 32 128 128 (15728640)
I1216 19:12:23.249177 28860 net.cpp:165] Memory required for data: 2642412288
I1216 19:12:23.249184 28860 layer_factory.hpp:77] Creating layer stem2b_bn
I1216 19:12:23.249191 28860 net.cpp:100] Creating Layer stem2b_bn
I1216 19:12:23.249197 28860 net.cpp:434] stem2b_bn <- stem2b
I1216 19:12:23.249207 28860 net.cpp:395] stem2b_bn -> stem2b (in-place)
I1216 19:12:23.249485 28860 net.cpp:150] Setting up stem2b_bn
I1216 19:12:23.249495 28860 net.cpp:157] Top shape: 30 32 128 128 (15728640)
I1216 19:12:23.249500 28860 net.cpp:165] Memory required for data: 2705326848
I1216 19:12:23.249511 28860 layer_factory.hpp:77] Creating layer stem2b_scale
I1216 19:12:23.249516 28860 net.cpp:100] Creating Layer stem2b_scale
I1216 19:12:23.249521 28860 net.cpp:434] stem2b_scale <- stem2b
I1216 19:12:23.249528 28860 net.cpp:395] stem2b_scale -> stem2b (in-place)
I1216 19:12:23.249580 28860 layer_factory.hpp:77] Creating layer stem2b_scale
I1216 19:12:23.249744 28860 net.cpp:150] Setting up stem2b_scale
I1216 19:12:23.249753 28860 net.cpp:157] Top shape: 30 32 128 128 (15728640)
I1216 19:12:23.249758 28860 net.cpp:165] Memory required for data: 2768241408
I1216 19:12:23.249771 28860 layer_factory.hpp:77] Creating layer stem2b_relu
I1216 19:12:23.249779 28860 net.cpp:100] Creating Layer stem2b_relu
I1216 19:12:23.249783 28860 net.cpp:434] stem2b_relu <- stem2b
I1216 19:12:23.249792 28860 net.cpp:395] stem2b_relu -> stem2b (in-place)
I1216 19:12:23.252498 28860 net.cpp:150] Setting up stem2b_relu
I1216 19:12:23.252516 28860 net.cpp:157] Top shape: 30 32 128 128 (15728640)
I1216 19:12:23.252519 28860 net.cpp:165] Memory required for data: 2831155968
I1216 19:12:23.252524 28860 layer_factory.hpp:77] Creating layer stem_pool
I1216 19:12:23.252540 28860 net.cpp:100] Creating Layer stem_pool
I1216 19:12:23.252545 28860 net.cpp:434] stem_pool <- stem1_stem1_relu_0_split_1
I1216 19:12:23.252553 28860 net.cpp:408] stem_pool -> stem_pool
I1216 19:12:23.252635 28860 net.cpp:150] Setting up stem_pool
I1216 19:12:23.252647 28860 net.cpp:157] Top shape: 30 32 128 128 (15728640)
I1216 19:12:23.252650 28860 net.cpp:165] Memory required for data: 2894070528
I1216 19:12:23.252655 28860 layer_factory.hpp:77] Creating layer stem_concat
I1216 19:12:23.252665 28860 net.cpp:100] Creating Layer stem_concat
I1216 19:12:23.252669 28860 net.cpp:434] stem_concat <- stem_pool
I1216 19:12:23.252676 28860 net.cpp:434] stem_concat <- stem2b
I1216 19:12:23.252683 28860 net.cpp:408] stem_concat -> stem_concat
I1216 19:12:23.252717 28860 net.cpp:150] Setting up stem_concat
I1216 19:12:23.252725 28860 net.cpp:157] Top shape: 30 64 128 128 (31457280)
I1216 19:12:23.252728 28860 net.cpp:165] Memory required for data: 3019899648
I1216 19:12:23.252732 28860 layer_factory.hpp:77] Creating layer stem3
I1216 19:12:23.252744 28860 net.cpp:100] Creating Layer stem3
I1216 19:12:23.252750 28860 net.cpp:434] stem3 <- stem_concat
I1216 19:12:23.252758 28860 net.cpp:408] stem3 -> stem3
I1216 19:12:23.270478 28860 net.cpp:150] Setting up stem3
I1216 19:12:23.270499 28860 net.cpp:157] Top shape: 30 32 128 128 (15728640)
I1216 19:12:23.270504 28860 net.cpp:165] Memory required for data: 3082814208
I1216 19:12:23.270511 28860 layer_factory.hpp:77] Creating layer stem3_bn
I1216 19:12:23.270521 28860 net.cpp:100] Creating Layer stem3_bn
I1216 19:12:23.270527 28860 net.cpp:434] stem3_bn <- stem3
I1216 19:12:23.270535 28860 net.cpp:395] stem3_bn -> stem3 (in-place)
I1216 19:12:23.270808 28860 net.cpp:150] Setting up stem3_bn
I1216 19:12:23.270818 28860 net.cpp:157] Top shape: 30 32 128 128 (15728640)
I1216 19:12:23.270823 28860 net.cpp:165] Memory required for data: 3145728768
I1216 19:12:23.270833 28860 layer_factory.hpp:77] Creating layer stem3_scale
I1216 19:12:23.270841 28860 net.cpp:100] Creating Layer stem3_scale
I1216 19:12:23.270846 28860 net.cpp:434] stem3_scale <- stem3
I1216 19:12:23.270853 28860 net.cpp:395] stem3_scale -> stem3 (in-place)
I1216 19:12:23.270912 28860 layer_factory.hpp:77] Creating layer stem3_scale
I1216 19:12:23.271080 28860 net.cpp:150] Setting up stem3_scale
I1216 19:12:23.271090 28860 net.cpp:157] Top shape: 30 32 128 128 (15728640)
I1216 19:12:23.271095 28860 net.cpp:165] Memory required for data: 3208643328
I1216 19:12:23.271103 28860 layer_factory.hpp:77] Creating layer stem3_relu
I1216 19:12:23.271112 28860 net.cpp:100] Creating Layer stem3_relu
I1216 19:12:23.271116 28860 net.cpp:434] stem3_relu <- stem3
I1216 19:12:23.271131 28860 net.cpp:395] stem3_relu -> stem3 (in-place)
I1216 19:12:23.274556 28860 net.cpp:150] Setting up stem3_relu
I1216 19:12:23.274574 28860 net.cpp:157] Top shape: 30 32 128 128 (15728640)
I1216 19:12:23.274580 28860 net.cpp:165] Memory required for data: 3271557888
I1216 19:12:23.274585 28860 layer_factory.hpp:77] Creating layer stem3_stem3_relu_0_split
I1216 19:12:23.274595 28860 net.cpp:100] Creating Layer stem3_stem3_relu_0_split
I1216 19:12:23.274600 28860 net.cpp:434] stem3_stem3_relu_0_split <- stem3
I1216 19:12:23.274608 28860 net.cpp:408] stem3_stem3_relu_0_split -> stem3_stem3_relu_0_split_0
I1216 19:12:23.274621 28860 net.cpp:408] stem3_stem3_relu_0_split -> stem3_stem3_relu_0_split_1
I1216 19:12:23.274628 28860 net.cpp:408] stem3_stem3_relu_0_split -> stem3_stem3_relu_0_split_2
I1216 19:12:23.274708 28860 net.cpp:150] Setting up stem3_stem3_relu_0_split
I1216 19:12:23.274719 28860 net.cpp:157] Top shape: 30 32 128 128 (15728640)
I1216 19:12:23.274724 28860 net.cpp:157] Top shape: 30 32 128 128 (15728640)
I1216 19:12:23.274729 28860 net.cpp:157] Top shape: 30 32 128 128 (15728640)
I1216 19:12:23.274732 28860 net.cpp:165] Memory required for data: 3460301568
I1216 19:12:23.274736 28860 layer_factory.hpp:77] Creating layer stage1_1_branch1a
I1216 19:12:23.274749 28860 net.cpp:100] Creating Layer stage1_1_branch1a
I1216 19:12:23.274754 28860 net.cpp:434] stage1_1_branch1a <- stem3_stem3_relu_0_split_0
I1216 19:12:23.274765 28860 net.cpp:408] stage1_1_branch1a -> stage1_1_branch1a
I1216 19:12:23.278271 28860 net.cpp:150] Setting up stage1_1_branch1a
I1216 19:12:23.278304 28860 net.cpp:157] Top shape: 30 8 128 128 (3932160)
I1216 19:12:23.278309 28860 net.cpp:165] Memory required for data: 3476030208
I1216 19:12:23.278318 28860 layer_factory.hpp:77] Creating layer stage1_1_branch1a_bn
I1216 19:12:23.278328 28860 net.cpp:100] Creating Layer stage1_1_branch1a_bn
I1216 19:12:23.278337 28860 net.cpp:434] stage1_1_branch1a_bn <- stage1_1_branch1a
I1216 19:12:23.278347 28860 net.cpp:395] stage1_1_branch1a_bn -> stage1_1_branch1a (in-place)
I1216 19:12:23.278615 28860 net.cpp:150] Setting up stage1_1_branch1a_bn
I1216 19:12:23.278625 28860 net.cpp:157] Top shape: 30 8 128 128 (3932160)
I1216 19:12:23.278630 28860 net.cpp:165] Memory required for data: 3491758848
I1216 19:12:23.278637 28860 layer_factory.hpp:77] Creating layer stage1_1_branch1a_scale
I1216 19:12:23.278646 28860 net.cpp:100] Creating Layer stage1_1_branch1a_scale
I1216 19:12:23.278650 28860 net.cpp:434] stage1_1_branch1a_scale <- stage1_1_branch1a
I1216 19:12:23.278658 28860 net.cpp:395] stage1_1_branch1a_scale -> stage1_1_branch1a (in-place)
I1216 19:12:23.278708 28860 layer_factory.hpp:77] Creating layer stage1_1_branch1a_scale
I1216 19:12:23.278885 28860 net.cpp:150] Setting up stage1_1_branch1a_scale
I1216 19:12:23.278894 28860 net.cpp:157] Top shape: 30 8 128 128 (3932160)
I1216 19:12:23.278899 28860 net.cpp:165] Memory required for data: 3507487488
I1216 19:12:23.278906 28860 layer_factory.hpp:77] Creating layer stage1_1_branch1a_relu
I1216 19:12:23.278916 28860 net.cpp:100] Creating Layer stage1_1_branch1a_relu
I1216 19:12:23.278920 28860 net.cpp:434] stage1_1_branch1a_relu <- stage1_1_branch1a
I1216 19:12:23.278929 28860 net.cpp:395] stage1_1_branch1a_relu -> stage1_1_branch1a (in-place)
I1216 19:12:23.279691 28860 net.cpp:150] Setting up stage1_1_branch1a_relu
I1216 19:12:23.279706 28860 net.cpp:157] Top shape: 30 8 128 128 (3932160)
I1216 19:12:23.279711 28860 net.cpp:165] Memory required for data: 3523216128
I1216 19:12:23.279716 28860 layer_factory.hpp:77] Creating layer stage1_1_branch1b
I1216 19:12:23.279728 28860 net.cpp:100] Creating Layer stage1_1_branch1b
I1216 19:12:23.279733 28860 net.cpp:434] stage1_1_branch1b <- stage1_1_branch1a
I1216 19:12:23.279742 28860 net.cpp:408] stage1_1_branch1b -> stage1_1_branch1b
I1216 19:12:23.288239 28860 net.cpp:150] Setting up stage1_1_branch1b
I1216 19:12:23.288256 28860 net.cpp:157] Top shape: 30 8 128 128 (3932160)
I1216 19:12:23.288261 28860 net.cpp:165] Memory required for data: 3538944768
I1216 19:12:23.288269 28860 layer_factory.hpp:77] Creating layer stage1_1_branch1b_bn
I1216 19:12:23.288280 28860 net.cpp:100] Creating Layer stage1_1_branch1b_bn
I1216 19:12:23.288285 28860 net.cpp:434] stage1_1_branch1b_bn <- stage1_1_branch1b
I1216 19:12:23.288293 28860 net.cpp:395] stage1_1_branch1b_bn -> stage1_1_branch1b (in-place)
I1216 19:12:23.288566 28860 net.cpp:150] Setting up stage1_1_branch1b_bn
I1216 19:12:23.288576 28860 net.cpp:157] Top shape: 30 8 128 128 (3932160)
I1216 19:12:23.288580 28860 net.cpp:165] Memory required for data: 3554673408
I1216 19:12:23.288595 28860 layer_factory.hpp:77] Creating layer stage1_1_branch1b_scale
I1216 19:12:23.288602 28860 net.cpp:100] Creating Layer stage1_1_branch1b_scale
I1216 19:12:23.288607 28860 net.cpp:434] stage1_1_branch1b_scale <- stage1_1_branch1b
I1216 19:12:23.288615 28860 net.cpp:395] stage1_1_branch1b_scale -> stage1_1_branch1b (in-place)
I1216 19:12:23.288672 28860 layer_factory.hpp:77] Creating layer stage1_1_branch1b_scale
I1216 19:12:23.288838 28860 net.cpp:150] Setting up stage1_1_branch1b_scale
I1216 19:12:23.288848 28860 net.cpp:157] Top shape: 30 8 128 128 (3932160)
I1216 19:12:23.288852 28860 net.cpp:165] Memory required for data: 3570402048
I1216 19:12:23.288859 28860 layer_factory.hpp:77] Creating layer stage1_1_branch1b_relu
I1216 19:12:23.288869 28860 net.cpp:100] Creating Layer stage1_1_branch1b_relu
I1216 19:12:23.288874 28860 net.cpp:434] stage1_1_branch1b_relu <- stage1_1_branch1b
I1216 19:12:23.288882 28860 net.cpp:395] stage1_1_branch1b_relu -> stage1_1_branch1b (in-place)
I1216 19:12:23.289646 28860 net.cpp:150] Setting up stage1_1_branch1b_relu
I1216 19:12:23.289659 28860 net.cpp:157] Top shape: 30 8 128 128 (3932160)
I1216 19:12:23.289664 28860 net.cpp:165] Memory required for data: 3586130688
I1216 19:12:23.289667 28860 layer_factory.hpp:77] Creating layer stage1_1_branch2a
I1216 19:12:23.289681 28860 net.cpp:100] Creating Layer stage1_1_branch2a
I1216 19:12:23.289686 28860 net.cpp:434] stage1_1_branch2a <- stem3_stem3_relu_0_split_1
I1216 19:12:23.289698 28860 net.cpp:408] stage1_1_branch2a -> stage1_1_branch2a
I1216 19:12:23.293342 28860 net.cpp:150] Setting up stage1_1_branch2a
I1216 19:12:23.293361 28860 net.cpp:157] Top shape: 30 8 128 128 (3932160)
I1216 19:12:23.293366 28860 net.cpp:165] Memory required for data: 3601859328
I1216 19:12:23.293373 28860 layer_factory.hpp:77] Creating layer stage1_1_branch2a_bn
I1216 19:12:23.293390 28860 net.cpp:100] Creating Layer stage1_1_branch2a_bn
I1216 19:12:23.293395 28860 net.cpp:434] stage1_1_branch2a_bn <- stage1_1_branch2a
I1216 19:12:23.293402 28860 net.cpp:395] stage1_1_branch2a_bn -> stage1_1_branch2a (in-place)
I1216 19:12:23.293676 28860 net.cpp:150] Setting up stage1_1_branch2a_bn
I1216 19:12:23.293685 28860 net.cpp:157] Top shape: 30 8 128 128 (3932160)
I1216 19:12:23.293689 28860 net.cpp:165] Memory required for data: 3617587968
I1216 19:12:23.293697 28860 layer_factory.hpp:77] Creating layer stage1_1_branch2a_scale
I1216 19:12:23.293715 28860 net.cpp:100] Creating Layer stage1_1_branch2a_scale
I1216 19:12:23.293718 28860 net.cpp:434] stage1_1_branch2a_scale <- stage1_1_branch2a
I1216 19:12:23.293725 28860 net.cpp:395] stage1_1_branch2a_scale -> stage1_1_branch2a (in-place)
I1216 19:12:23.293776 28860 layer_factory.hpp:77] Creating layer stage1_1_branch2a_scale
I1216 19:12:23.293944 28860 net.cpp:150] Setting up stage1_1_branch2a_scale
I1216 19:12:23.293954 28860 net.cpp:157] Top shape: 30 8 128 128 (3932160)
I1216 19:12:23.293958 28860 net.cpp:165] Memory required for data: 3633316608
I1216 19:12:23.293964 28860 layer_factory.hpp:77] Creating layer stage1_1_branch2a_relu
I1216 19:12:23.293972 28860 net.cpp:100] Creating Layer stage1_1_branch2a_relu
I1216 19:12:23.293977 28860 net.cpp:434] stage1_1_branch2a_relu <- stage1_1_branch2a
I1216 19:12:23.293984 28860 net.cpp:395] stage1_1_branch2a_relu -> stage1_1_branch2a (in-place)
I1216 19:12:23.296674 28860 net.cpp:150] Setting up stage1_1_branch2a_relu
I1216 19:12:23.296694 28860 net.cpp:157] Top shape: 30 8 128 128 (3932160)
I1216 19:12:23.296697 28860 net.cpp:165] Memory required for data: 3649045248
I1216 19:12:23.296701 28860 layer_factory.hpp:77] Creating layer stage1_1_branch2b
I1216 19:12:23.296715 28860 net.cpp:100] Creating Layer stage1_1_branch2b
I1216 19:12:23.296721 28860 net.cpp:434] stage1_1_branch2b <- stage1_1_branch2a
I1216 19:12:23.296735 28860 net.cpp:408] stage1_1_branch2b -> stage1_1_branch2b
I1216 19:12:23.305269 28860 net.cpp:150] Setting up stage1_1_branch2b
I1216 19:12:23.305287 28860 net.cpp:157] Top shape: 30 8 128 128 (3932160)
I1216 19:12:23.305294 28860 net.cpp:165] Memory required for data: 3664773888
I1216 19:12:23.305300 28860 layer_factory.hpp:77] Creating layer stage1_1_branch2b_bn
I1216 19:12:23.305310 28860 net.cpp:100] Creating Layer stage1_1_branch2b_bn
I1216 19:12:23.305315 28860 net.cpp:434] stage1_1_branch2b_bn <- stage1_1_branch2b
I1216 19:12:23.305326 28860 net.cpp:395] stage1_1_branch2b_bn -> stage1_1_branch2b (in-place)
I1216 19:12:23.305603 28860 net.cpp:150] Setting up stage1_1_branch2b_bn
I1216 19:12:23.305613 28860 net.cpp:157] Top shape: 30 8 128 128 (3932160)
I1216 19:12:23.305618 28860 net.cpp:165] Memory required for data: 3680502528
I1216 19:12:23.305629 28860 layer_factory.hpp:77] Creating layer stage1_1_branch2b_scale
I1216 19:12:23.305637 28860 net.cpp:100] Creating Layer stage1_1_branch2b_scale
I1216 19:12:23.305641 28860 net.cpp:434] stage1_1_branch2b_scale <- stage1_1_branch2b
I1216 19:12:23.305650 28860 net.cpp:395] stage1_1_branch2b_scale -> stage1_1_branch2b (in-place)
I1216 19:12:23.305722 28860 layer_factory.hpp:77] Creating layer stage1_1_branch2b_scale
I1216 19:12:23.305892 28860 net.cpp:150] Setting up stage1_1_branch2b_scale
I1216 19:12:23.305902 28860 net.cpp:157] Top shape: 30 8 128 128 (3932160)
I1216 19:12:23.305907 28860 net.cpp:165] Memory required for data: 3696231168
I1216 19:12:23.305913 28860 layer_factory.hpp:77] Creating layer stage1_1_branch2b_relu
I1216 19:12:23.305920 28860 net.cpp:100] Creating Layer stage1_1_branch2b_relu
I1216 19:12:23.305924 28860 net.cpp:434] stage1_1_branch2b_relu <- stage1_1_branch2b
I1216 19:12:23.305932 28860 net.cpp:395] stage1_1_branch2b_relu -> stage1_1_branch2b (in-place)
I1216 19:12:23.306686 28860 net.cpp:150] Setting up stage1_1_branch2b_relu
I1216 19:12:23.306699 28860 net.cpp:157] Top shape: 30 8 128 128 (3932160)
I1216 19:12:23.306702 28860 net.cpp:165] Memory required for data: 3711959808
I1216 19:12:23.306707 28860 layer_factory.hpp:77] Creating layer stage1_1_branch2c
I1216 19:12:23.306720 28860 net.cpp:100] Creating Layer stage1_1_branch2c
I1216 19:12:23.306725 28860 net.cpp:434] stage1_1_branch2c <- stage1_1_branch2b
I1216 19:12:23.306736 28860 net.cpp:408] stage1_1_branch2c -> stage1_1_branch2c
I1216 19:12:23.313593 28860 net.cpp:150] Setting up stage1_1_branch2c
I1216 19:12:23.313614 28860 net.cpp:157] Top shape: 30 8 128 128 (3932160)
I1216 19:12:23.313618 28860 net.cpp:165] Memory required for data: 3727688448
I1216 19:12:23.313627 28860 layer_factory.hpp:77] Creating layer stage1_1_branch2c_bn
I1216 19:12:23.313638 28860 net.cpp:100] Creating Layer stage1_1_branch2c_bn
I1216 19:12:23.313645 28860 net.cpp:434] stage1_1_branch2c_bn <- stage1_1_branch2c
I1216 19:12:23.313652 28860 net.cpp:395] stage1_1_branch2c_bn -> stage1_1_branch2c (in-place)
I1216 19:12:23.313951 28860 net.cpp:150] Setting up stage1_1_branch2c_bn
I1216 19:12:23.313961 28860 net.cpp:157] Top shape: 30 8 128 128 (3932160)
I1216 19:12:23.313966 28860 net.cpp:165] Memory required for data: 3743417088
I1216 19:12:23.313973 28860 layer_factory.hpp:77] Creating layer stage1_1_branch2c_scale
I1216 19:12:23.313983 28860 net.cpp:100] Creating Layer stage1_1_branch2c_scale
I1216 19:12:23.313987 28860 net.cpp:434] stage1_1_branch2c_scale <- stage1_1_branch2c
I1216 19:12:23.313997 28860 net.cpp:395] stage1_1_branch2c_scale -> stage1_1_branch2c (in-place)
I1216 19:12:23.314049 28860 layer_factory.hpp:77] Creating layer stage1_1_branch2c_scale
I1216 19:12:23.314224 28860 net.cpp:150] Setting up stage1_1_branch2c_scale
I1216 19:12:23.314234 28860 net.cpp:157] Top shape: 30 8 128 128 (3932160)
I1216 19:12:23.314239 28860 net.cpp:165] Memory required for data: 3759145728
I1216 19:12:23.314246 28860 layer_factory.hpp:77] Creating layer stage1_1_branch2c_relu
I1216 19:12:23.314255 28860 net.cpp:100] Creating Layer stage1_1_branch2c_relu
I1216 19:12:23.314260 28860 net.cpp:434] stage1_1_branch2c_relu <- stage1_1_branch2c
I1216 19:12:23.314266 28860 net.cpp:395] stage1_1_branch2c_relu -> stage1_1_branch2c (in-place)
I1216 19:12:23.315060 28860 net.cpp:150] Setting up stage1_1_branch2c_relu
I1216 19:12:23.315074 28860 net.cpp:157] Top shape: 30 8 128 128 (3932160)
I1216 19:12:23.315079 28860 net.cpp:165] Memory required for data: 3774874368
I1216 19:12:23.315084 28860 layer_factory.hpp:77] Creating layer stage1_1_concat
I1216 19:12:23.315093 28860 net.cpp:100] Creating Layer stage1_1_concat
I1216 19:12:23.315099 28860 net.cpp:434] stage1_1_concat <- stem3_stem3_relu_0_split_2
I1216 19:12:23.315106 28860 net.cpp:434] stage1_1_concat <- stage1_1_branch1b
I1216 19:12:23.315112 28860 net.cpp:434] stage1_1_concat <- stage1_1_branch2c
I1216 19:12:23.315119 28860 net.cpp:408] stage1_1_concat -> stage1_1_concat
I1216 19:12:23.315161 28860 net.cpp:150] Setting up stage1_1_concat
I1216 19:12:23.315169 28860 net.cpp:157] Top shape: 30 48 128 128 (23592960)
I1216 19:12:23.315173 28860 net.cpp:165] Memory required for data: 3869246208
I1216 19:12:23.315179 28860 layer_factory.hpp:77] Creating layer stage1_tb
I1216 19:12:23.315191 28860 net.cpp:100] Creating Layer stage1_tb
I1216 19:12:23.315196 28860 net.cpp:434] stage1_tb <- stage1_1_concat
I1216 19:12:23.315222 28860 net.cpp:408] stage1_tb -> stage1_tb
I1216 19:12:23.326778 28860 net.cpp:150] Setting up stage1_tb
I1216 19:12:23.326802 28860 net.cpp:157] Top shape: 30 48 128 128 (23592960)
I1216 19:12:23.326807 28860 net.cpp:165] Memory required for data: 3963618048
I1216 19:12:23.326814 28860 layer_factory.hpp:77] Creating layer stage1_tb_bn
I1216 19:12:23.326822 28860 net.cpp:100] Creating Layer stage1_tb_bn
I1216 19:12:23.326827 28860 net.cpp:434] stage1_tb_bn <- stage1_tb
I1216 19:12:23.326835 28860 net.cpp:395] stage1_tb_bn -> stage1_tb (in-place)
I1216 19:12:23.327134 28860 net.cpp:150] Setting up stage1_tb_bn
I1216 19:12:23.327147 28860 net.cpp:157] Top shape: 30 48 128 128 (23592960)
I1216 19:12:23.327152 28860 net.cpp:165] Memory required for data: 4057989888
I1216 19:12:23.327160 28860 layer_factory.hpp:77] Creating layer stage1_tb_scale
I1216 19:12:23.327167 28860 net.cpp:100] Creating Layer stage1_tb_scale
I1216 19:12:23.327172 28860 net.cpp:434] stage1_tb_scale <- stage1_tb
I1216 19:12:23.327178 28860 net.cpp:395] stage1_tb_scale -> stage1_tb (in-place)
I1216 19:12:23.327232 28860 layer_factory.hpp:77] Creating layer stage1_tb_scale
I1216 19:12:23.327405 28860 net.cpp:150] Setting up stage1_tb_scale
I1216 19:12:23.327415 28860 net.cpp:157] Top shape: 30 48 128 128 (23592960)
I1216 19:12:23.327419 28860 net.cpp:165] Memory required for data: 4152361728
I1216 19:12:23.327428 28860 layer_factory.hpp:77] Creating layer stage1_tb_relu
I1216 19:12:23.327436 28860 net.cpp:100] Creating Layer stage1_tb_relu
I1216 19:12:23.327440 28860 net.cpp:434] stage1_tb_relu <- stage1_tb
I1216 19:12:23.327448 28860 net.cpp:395] stage1_tb_relu -> stage1_tb (in-place)
I1216 19:12:23.331893 28860 net.cpp:150] Setting up stage1_tb_relu
I1216 19:12:23.331912 28860 net.cpp:157] Top shape: 30 48 128 128 (23592960)
I1216 19:12:23.331918 28860 net.cpp:165] Memory required for data: 4246733568
I1216 19:12:23.331921 28860 layer_factory.hpp:77] Creating layer stage1_tb_pool
I1216 19:12:23.331929 28860 net.cpp:100] Creating Layer stage1_tb_pool
I1216 19:12:23.331935 28860 net.cpp:434] stage1_tb_pool <- stage1_tb
I1216 19:12:23.331944 28860 net.cpp:408] stage1_tb_pool -> stage1_tb_pool
I1216 19:12:23.332756 28860 net.cpp:150] Setting up stage1_tb_pool
I1216 19:12:23.332772 28860 net.cpp:157] Top shape: 30 48 64 64 (5898240)
I1216 19:12:23.332777 28860 net.cpp:165] Memory required for data: 4270326528
I1216 19:12:23.332780 28860 layer_factory.hpp:77] Creating layer stage1_tb_pool_stage1_tb_pool_0_split
I1216 19:12:23.332790 28860 net.cpp:100] Creating Layer stage1_tb_pool_stage1_tb_pool_0_split
I1216 19:12:23.332796 28860 net.cpp:434] stage1_tb_pool_stage1_tb_pool_0_split <- stage1_tb_pool
I1216 19:12:23.332804 28860 net.cpp:408] stage1_tb_pool_stage1_tb_pool_0_split -> stage1_tb_pool_stage1_tb_pool_0_split_0
I1216 19:12:23.332813 28860 net.cpp:408] stage1_tb_pool_stage1_tb_pool_0_split -> stage1_tb_pool_stage1_tb_pool_0_split_1
I1216 19:12:23.332823 28860 net.cpp:408] stage1_tb_pool_stage1_tb_pool_0_split -> stage1_tb_pool_stage1_tb_pool_0_split_2
I1216 19:12:23.332893 28860 net.cpp:150] Setting up stage1_tb_pool_stage1_tb_pool_0_split
I1216 19:12:23.332903 28860 net.cpp:157] Top shape: 30 48 64 64 (5898240)
I1216 19:12:23.332908 28860 net.cpp:157] Top shape: 30 48 64 64 (5898240)
I1216 19:12:23.332913 28860 net.cpp:157] Top shape: 30 48 64 64 (5898240)
I1216 19:12:23.332917 28860 net.cpp:165] Memory required for data: 4341105408
I1216 19:12:23.332924 28860 layer_factory.hpp:77] Creating layer stage2_1_branch1a
I1216 19:12:23.332937 28860 net.cpp:100] Creating Layer stage2_1_branch1a
I1216 19:12:23.332942 28860 net.cpp:434] stage2_1_branch1a <- stage1_tb_pool_stage1_tb_pool_0_split_0
I1216 19:12:23.332952 28860 net.cpp:408] stage2_1_branch1a -> stage2_1_branch1a
I1216 19:12:23.337491 28860 net.cpp:150] Setting up stage2_1_branch1a
I1216 19:12:23.337509 28860 net.cpp:157] Top shape: 30 16 64 64 (1966080)
I1216 19:12:23.337514 28860 net.cpp:165] Memory required for data: 4348969728
I1216 19:12:23.337539 28860 layer_factory.hpp:77] Creating layer stage2_1_branch1a_bn
I1216 19:12:23.337551 28860 net.cpp:100] Creating Layer stage2_1_branch1a_bn
I1216 19:12:23.337556 28860 net.cpp:434] stage2_1_branch1a_bn <- stage2_1_branch1a
I1216 19:12:23.337568 28860 net.cpp:395] stage2_1_branch1a_bn -> stage2_1_branch1a (in-place)
I1216 19:12:23.337855 28860 net.cpp:150] Setting up stage2_1_branch1a_bn
I1216 19:12:23.337865 28860 net.cpp:157] Top shape: 30 16 64 64 (1966080)
I1216 19:12:23.337869 28860 net.cpp:165] Memory required for data: 4356834048
I1216 19:12:23.337877 28860 layer_factory.hpp:77] Creating layer stage2_1_branch1a_scale
I1216 19:12:23.337884 28860 net.cpp:100] Creating Layer stage2_1_branch1a_scale
I1216 19:12:23.337889 28860 net.cpp:434] stage2_1_branch1a_scale <- stage2_1_branch1a
I1216 19:12:23.337898 28860 net.cpp:395] stage2_1_branch1a_scale -> stage2_1_branch1a (in-place)
I1216 19:12:23.337946 28860 layer_factory.hpp:77] Creating layer stage2_1_branch1a_scale
I1216 19:12:23.338101 28860 net.cpp:150] Setting up stage2_1_branch1a_scale
I1216 19:12:23.338111 28860 net.cpp:157] Top shape: 30 16 64 64 (1966080)
I1216 19:12:23.338115 28860 net.cpp:165] Memory required for data: 4364698368
I1216 19:12:23.338135 28860 layer_factory.hpp:77] Creating layer stage2_1_branch1a_relu
I1216 19:12:23.338143 28860 net.cpp:100] Creating Layer stage2_1_branch1a_relu
I1216 19:12:23.338148 28860 net.cpp:434] stage2_1_branch1a_relu <- stage2_1_branch1a
I1216 19:12:23.338155 28860 net.cpp:395] stage2_1_branch1a_relu -> stage2_1_branch1a (in-place)
I1216 19:12:23.339968 28860 net.cpp:150] Setting up stage2_1_branch1a_relu
I1216 19:12:23.339987 28860 net.cpp:157] Top shape: 30 16 64 64 (1966080)
I1216 19:12:23.339993 28860 net.cpp:165] Memory required for data: 4372562688
I1216 19:12:23.339999 28860 layer_factory.hpp:77] Creating layer stage2_1_branch1b
I1216 19:12:23.340013 28860 net.cpp:100] Creating Layer stage2_1_branch1b
I1216 19:12:23.340019 28860 net.cpp:434] stage2_1_branch1b <- stage2_1_branch1a
I1216 19:12:23.340031 28860 net.cpp:408] stage2_1_branch1b -> stage2_1_branch1b
I1216 19:12:23.345326 28860 net.cpp:150] Setting up stage2_1_branch1b
I1216 19:12:23.345345 28860 net.cpp:157] Top shape: 30 8 64 64 (983040)
I1216 19:12:23.345350 28860 net.cpp:165] Memory required for data: 4376494848
I1216 19:12:23.345357 28860 layer_factory.hpp:77] Creating layer stage2_1_branch1b_bn
I1216 19:12:23.345367 28860 net.cpp:100] Creating Layer stage2_1_branch1b_bn
I1216 19:12:23.345372 28860 net.cpp:434] stage2_1_branch1b_bn <- stage2_1_branch1b
I1216 19:12:23.345381 28860 net.cpp:395] stage2_1_branch1b_bn -> stage2_1_branch1b (in-place)
I1216 19:12:23.345660 28860 net.cpp:150] Setting up stage2_1_branch1b_bn
I1216 19:12:23.345669 28860 net.cpp:157] Top shape: 30 8 64 64 (983040)
I1216 19:12:23.345674 28860 net.cpp:165] Memory required for data: 4380427008
I1216 19:12:23.345681 28860 layer_factory.hpp:77] Creating layer stage2_1_branch1b_scale
I1216 19:12:23.345690 28860 net.cpp:100] Creating Layer stage2_1_branch1b_scale
I1216 19:12:23.345693 28860 net.cpp:434] stage2_1_branch1b_scale <- stage2_1_branch1b
I1216 19:12:23.345698 28860 net.cpp:395] stage2_1_branch1b_scale -> stage2_1_branch1b (in-place)
I1216 19:12:23.345753 28860 layer_factory.hpp:77] Creating layer stage2_1_branch1b_scale
I1216 19:12:23.345909 28860 net.cpp:150] Setting up stage2_1_branch1b_scale
I1216 19:12:23.345921 28860 net.cpp:157] Top shape: 30 8 64 64 (983040)
I1216 19:12:23.345924 28860 net.cpp:165] Memory required for data: 4384359168
I1216 19:12:23.345933 28860 layer_factory.hpp:77] Creating layer stage2_1_branch1b_relu
I1216 19:12:23.345940 28860 net.cpp:100] Creating Layer stage2_1_branch1b_relu
I1216 19:12:23.345944 28860 net.cpp:434] stage2_1_branch1b_relu <- stage2_1_branch1b
I1216 19:12:23.345952 28860 net.cpp:395] stage2_1_branch1b_relu -> stage2_1_branch1b (in-place)
I1216 19:12:23.355989 28860 net.cpp:150] Setting up stage2_1_branch1b_relu
I1216 19:12:23.356009 28860 net.cpp:157] Top shape: 30 8 64 64 (983040)
I1216 19:12:23.356014 28860 net.cpp:165] Memory required for data: 4388291328
I1216 19:12:23.356032 28860 layer_factory.hpp:77] Creating layer stage2_1_branch2a
I1216 19:12:23.356048 28860 net.cpp:100] Creating Layer stage2_1_branch2a
I1216 19:12:23.356055 28860 net.cpp:434] stage2_1_branch2a <- stage1_tb_pool_stage1_tb_pool_0_split_1
I1216 19:12:23.356063 28860 net.cpp:408] stage2_1_branch2a -> stage2_1_branch2a
I1216 19:12:23.366369 28860 net.cpp:150] Setting up stage2_1_branch2a
I1216 19:12:23.366389 28860 net.cpp:157] Top shape: 30 16 64 64 (1966080)
I1216 19:12:23.366394 28860 net.cpp:165] Memory required for data: 4396155648
I1216 19:12:23.366400 28860 layer_factory.hpp:77] Creating layer stage2_1_branch2a_bn
I1216 19:12:23.366411 28860 net.cpp:100] Creating Layer stage2_1_branch2a_bn
I1216 19:12:23.366416 28860 net.cpp:434] stage2_1_branch2a_bn <- stage2_1_branch2a
I1216 19:12:23.366425 28860 net.cpp:395] stage2_1_branch2a_bn -> stage2_1_branch2a (in-place)
I1216 19:12:23.366708 28860 net.cpp:150] Setting up stage2_1_branch2a_bn
I1216 19:12:23.366719 28860 net.cpp:157] Top shape: 30 16 64 64 (1966080)
I1216 19:12:23.366721 28860 net.cpp:165] Memory required for data: 4404019968
I1216 19:12:23.366734 28860 layer_factory.hpp:77] Creating layer stage2_1_branch2a_scale
I1216 19:12:23.366740 28860 net.cpp:100] Creating Layer stage2_1_branch2a_scale
I1216 19:12:23.366744 28860 net.cpp:434] stage2_1_branch2a_scale <- stage2_1_branch2a
I1216 19:12:23.366753 28860 net.cpp:395] stage2_1_branch2a_scale -> stage2_1_branch2a (in-place)
I1216 19:12:23.366807 28860 layer_factory.hpp:77] Creating layer stage2_1_branch2a_scale
I1216 19:12:23.366976 28860 net.cpp:150] Setting up stage2_1_branch2a_scale
I1216 19:12:23.366986 28860 net.cpp:157] Top shape: 30 16 64 64 (1966080)
I1216 19:12:23.366991 28860 net.cpp:165] Memory required for data: 4411884288
I1216 19:12:23.366997 28860 layer_factory.hpp:77] Creating layer stage2_1_branch2a_relu
I1216 19:12:23.367004 28860 net.cpp:100] Creating Layer stage2_1_branch2a_relu
I1216 19:12:23.367008 28860 net.cpp:434] stage2_1_branch2a_relu <- stage2_1_branch2a
I1216 19:12:23.367014 28860 net.cpp:395] stage2_1_branch2a_relu -> stage2_1_branch2a (in-place)
I1216 19:12:23.367800 28860 net.cpp:150] Setting up stage2_1_branch2a_relu
I1216 19:12:23.367815 28860 net.cpp:157] Top shape: 30 16 64 64 (1966080)
I1216 19:12:23.367820 28860 net.cpp:165] Memory required for data: 4419748608
I1216 19:12:23.367823 28860 layer_factory.hpp:77] Creating layer stage2_1_branch2b
I1216 19:12:23.367837 28860 net.cpp:100] Creating Layer stage2_1_branch2b
I1216 19:12:23.367842 28860 net.cpp:434] stage2_1_branch2b <- stage2_1_branch2a
I1216 19:12:23.367852 28860 net.cpp:408] stage2_1_branch2b -> stage2_1_branch2b
I1216 19:12:23.389777 28860 net.cpp:150] Setting up stage2_1_branch2b
I1216 19:12:23.389796 28860 net.cpp:157] Top shape: 30 8 64 64 (983040)
I1216 19:12:23.389801 28860 net.cpp:165] Memory required for data: 4423680768
I1216 19:12:23.389811 28860 layer_factory.hpp:77] Creating layer stage2_1_branch2b_bn
I1216 19:12:23.389820 28860 net.cpp:100] Creating Layer stage2_1_branch2b_bn
I1216 19:12:23.389827 28860 net.cpp:434] stage2_1_branch2b_bn <- stage2_1_branch2b
I1216 19:12:23.389835 28860 net.cpp:395] stage2_1_branch2b_bn -> stage2_1_branch2b (in-place)
I1216 19:12:23.390121 28860 net.cpp:150] Setting up stage2_1_branch2b_bn
I1216 19:12:23.390130 28860 net.cpp:157] Top shape: 30 8 64 64 (983040)
I1216 19:12:23.390136 28860 net.cpp:165] Memory required for data: 4427612928
I1216 19:12:23.390143 28860 layer_factory.hpp:77] Creating layer stage2_1_branch2b_scale
I1216 19:12:23.390161 28860 net.cpp:100] Creating Layer stage2_1_branch2b_scale
I1216 19:12:23.390166 28860 net.cpp:434] stage2_1_branch2b_scale <- stage2_1_branch2b
I1216 19:12:23.390172 28860 net.cpp:395] stage2_1_branch2b_scale -> stage2_1_branch2b (in-place)
I1216 19:12:23.390229 28860 layer_factory.hpp:77] Creating layer stage2_1_branch2b_scale
I1216 19:12:23.390385 28860 net.cpp:150] Setting up stage2_1_branch2b_scale
I1216 19:12:23.390395 28860 net.cpp:157] Top shape: 30 8 64 64 (983040)
I1216 19:12:23.390414 28860 net.cpp:165] Memory required for data: 4431545088
I1216 19:12:23.390424 28860 layer_factory.hpp:77] Creating layer stage2_1_branch2b_relu
I1216 19:12:23.390432 28860 net.cpp:100] Creating Layer stage2_1_branch2b_relu
I1216 19:12:23.390437 28860 net.cpp:434] stage2_1_branch2b_relu <- stage2_1_branch2b
I1216 19:12:23.390444 28860 net.cpp:395] stage2_1_branch2b_relu -> stage2_1_branch2b (in-place)
I1216 19:12:23.391235 28860 net.cpp:150] Setting up stage2_1_branch2b_relu
I1216 19:12:23.391248 28860 net.cpp:157] Top shape: 30 8 64 64 (983040)
I1216 19:12:23.391252 28860 net.cpp:165] Memory required for data: 4435477248
I1216 19:12:23.391258 28860 layer_factory.hpp:77] Creating layer stage2_1_branch2c
I1216 19:12:23.391273 28860 net.cpp:100] Creating Layer stage2_1_branch2c
I1216 19:12:23.391278 28860 net.cpp:434] stage2_1_branch2c <- stage2_1_branch2b
I1216 19:12:23.391288 28860 net.cpp:408] stage2_1_branch2c -> stage2_1_branch2c
I1216 19:12:23.396015 28860 net.cpp:150] Setting up stage2_1_branch2c
I1216 19:12:23.396034 28860 net.cpp:157] Top shape: 30 8 64 64 (983040)
I1216 19:12:23.396039 28860 net.cpp:165] Memory required for data: 4439409408
I1216 19:12:23.396045 28860 layer_factory.hpp:77] Creating layer stage2_1_branch2c_bn
I1216 19:12:23.396056 28860 net.cpp:100] Creating Layer stage2_1_branch2c_bn
I1216 19:12:23.396062 28860 net.cpp:434] stage2_1_branch2c_bn <- stage2_1_branch2c
I1216 19:12:23.396070 28860 net.cpp:395] stage2_1_branch2c_bn -> stage2_1_branch2c (in-place)
I1216 19:12:23.396365 28860 net.cpp:150] Setting up stage2_1_branch2c_bn
I1216 19:12:23.396375 28860 net.cpp:157] Top shape: 30 8 64 64 (983040)
I1216 19:12:23.396379 28860 net.cpp:165] Memory required for data: 4443341568
I1216 19:12:23.396387 28860 layer_factory.hpp:77] Creating layer stage2_1_branch2c_scale
I1216 19:12:23.396394 28860 net.cpp:100] Creating Layer stage2_1_branch2c_scale
I1216 19:12:23.396399 28860 net.cpp:434] stage2_1_branch2c_scale <- stage2_1_branch2c
I1216 19:12:23.396406 28860 net.cpp:395] stage2_1_branch2c_scale -> stage2_1_branch2c (in-place)
I1216 19:12:23.396461 28860 layer_factory.hpp:77] Creating layer stage2_1_branch2c_scale
I1216 19:12:23.396620 28860 net.cpp:150] Setting up stage2_1_branch2c_scale
I1216 19:12:23.396633 28860 net.cpp:157] Top shape: 30 8 64 64 (983040)
I1216 19:12:23.396637 28860 net.cpp:165] Memory required for data: 4447273728
I1216 19:12:23.396643 28860 layer_factory.hpp:77] Creating layer stage2_1_branch2c_relu
I1216 19:12:23.396652 28860 net.cpp:100] Creating Layer stage2_1_branch2c_relu
I1216 19:12:23.396657 28860 net.cpp:434] stage2_1_branch2c_relu <- stage2_1_branch2c
I1216 19:12:23.396664 28860 net.cpp:395] stage2_1_branch2c_relu -> stage2_1_branch2c (in-place)
I1216 19:12:23.398782 28860 net.cpp:150] Setting up stage2_1_branch2c_relu
I1216 19:12:23.398807 28860 net.cpp:157] Top shape: 30 8 64 64 (983040)
I1216 19:12:23.398811 28860 net.cpp:165] Memory required for data: 4451205888
I1216 19:12:23.398816 28860 layer_factory.hpp:77] Creating layer stage2_1_concat
I1216 19:12:23.398824 28860 net.cpp:100] Creating Layer stage2_1_concat
I1216 19:12:23.398829 28860 net.cpp:434] stage2_1_concat <- stage1_tb_pool_stage1_tb_pool_0_split_2
I1216 19:12:23.398838 28860 net.cpp:434] stage2_1_concat <- stage2_1_branch1b
I1216 19:12:23.398842 28860 net.cpp:434] stage2_1_concat <- stage2_1_branch2c
I1216 19:12:23.398851 28860 net.cpp:408] stage2_1_concat -> stage2_1_concat
I1216 19:12:23.398905 28860 net.cpp:150] Setting up stage2_1_concat
I1216 19:12:23.398916 28860 net.cpp:157] Top shape: 30 64 64 64 (7864320)
I1216 19:12:23.398919 28860 net.cpp:165] Memory required for data: 4482663168
I1216 19:12:23.398923 28860 layer_factory.hpp:77] Creating layer stage2_1_concat_stage2_1_concat_0_split
I1216 19:12:23.398933 28860 net.cpp:100] Creating Layer stage2_1_concat_stage2_1_concat_0_split
I1216 19:12:23.398938 28860 net.cpp:434] stage2_1_concat_stage2_1_concat_0_split <- stage2_1_concat
I1216 19:12:23.398947 28860 net.cpp:408] stage2_1_concat_stage2_1_concat_0_split -> stage2_1_concat_stage2_1_concat_0_split_0
I1216 19:12:23.398970 28860 net.cpp:408] stage2_1_concat_stage2_1_concat_0_split -> stage2_1_concat_stage2_1_concat_0_split_1
I1216 19:12:23.398978 28860 net.cpp:408] stage2_1_concat_stage2_1_concat_0_split -> stage2_1_concat_stage2_1_concat_0_split_2
I1216 19:12:23.399052 28860 net.cpp:150] Setting up stage2_1_concat_stage2_1_concat_0_split
I1216 19:12:23.399060 28860 net.cpp:157] Top shape: 30 64 64 64 (7864320)
I1216 19:12:23.399065 28860 net.cpp:157] Top shape: 30 64 64 64 (7864320)
I1216 19:12:23.399070 28860 net.cpp:157] Top shape: 30 64 64 64 (7864320)
I1216 19:12:23.399073 28860 net.cpp:165] Memory required for data: 4577035008
I1216 19:12:23.399077 28860 layer_factory.hpp:77] Creating layer stage2_2_branch1a
I1216 19:12:23.399092 28860 net.cpp:100] Creating Layer stage2_2_branch1a
I1216 19:12:23.399098 28860 net.cpp:434] stage2_2_branch1a <- stage2_1_concat_stage2_1_concat_0_split_0
I1216 19:12:23.399106 28860 net.cpp:408] stage2_2_branch1a -> stage2_2_branch1a
I1216 19:12:23.402453 28860 net.cpp:150] Setting up stage2_2_branch1a
I1216 19:12:23.402470 28860 net.cpp:157] Top shape: 30 16 64 64 (1966080)
I1216 19:12:23.402475 28860 net.cpp:165] Memory required for data: 4584899328
I1216 19:12:23.402484 28860 layer_factory.hpp:77] Creating layer stage2_2_branch1a_bn
I1216 19:12:23.402494 28860 net.cpp:100] Creating Layer stage2_2_branch1a_bn
I1216 19:12:23.402499 28860 net.cpp:434] stage2_2_branch1a_bn <- stage2_2_branch1a
I1216 19:12:23.402506 28860 net.cpp:395] stage2_2_branch1a_bn -> stage2_2_branch1a (in-place)
I1216 19:12:23.402799 28860 net.cpp:150] Setting up stage2_2_branch1a_bn
I1216 19:12:23.402809 28860 net.cpp:157] Top shape: 30 16 64 64 (1966080)
I1216 19:12:23.402812 28860 net.cpp:165] Memory required for data: 4592763648
I1216 19:12:23.402822 28860 layer_factory.hpp:77] Creating layer stage2_2_branch1a_scale
I1216 19:12:23.402830 28860 net.cpp:100] Creating Layer stage2_2_branch1a_scale
I1216 19:12:23.402835 28860 net.cpp:434] stage2_2_branch1a_scale <- stage2_2_branch1a
I1216 19:12:23.402840 28860 net.cpp:395] stage2_2_branch1a_scale -> stage2_2_branch1a (in-place)
I1216 19:12:23.402904 28860 layer_factory.hpp:77] Creating layer stage2_2_branch1a_scale
I1216 19:12:23.403074 28860 net.cpp:150] Setting up stage2_2_branch1a_scale
I1216 19:12:23.403084 28860 net.cpp:157] Top shape: 30 16 64 64 (1966080)
I1216 19:12:23.403087 28860 net.cpp:165] Memory required for data: 4600627968
I1216 19:12:23.403093 28860 layer_factory.hpp:77] Creating layer stage2_2_branch1a_relu
I1216 19:12:23.403105 28860 net.cpp:100] Creating Layer stage2_2_branch1a_relu
I1216 19:12:23.403110 28860 net.cpp:434] stage2_2_branch1a_relu <- stage2_2_branch1a
I1216 19:12:23.403116 28860 net.cpp:395] stage2_2_branch1a_relu -> stage2_2_branch1a (in-place)
I1216 19:12:23.403898 28860 net.cpp:150] Setting up stage2_2_branch1a_relu
I1216 19:12:23.403911 28860 net.cpp:157] Top shape: 30 16 64 64 (1966080)
I1216 19:12:23.403915 28860 net.cpp:165] Memory required for data: 4608492288
I1216 19:12:23.403921 28860 layer_factory.hpp:77] Creating layer stage2_2_branch1b
I1216 19:12:23.403935 28860 net.cpp:100] Creating Layer stage2_2_branch1b
I1216 19:12:23.403941 28860 net.cpp:434] stage2_2_branch1b <- stage2_2_branch1a
I1216 19:12:23.403949 28860 net.cpp:408] stage2_2_branch1b -> stage2_2_branch1b
I1216 19:12:23.408310 28860 net.cpp:150] Setting up stage2_2_branch1b
I1216 19:12:23.408329 28860 net.cpp:157] Top shape: 30 8 64 64 (983040)
I1216 19:12:23.408334 28860 net.cpp:165] Memory required for data: 4612424448
I1216 19:12:23.408340 28860 layer_factory.hpp:77] Creating layer stage2_2_branch1b_bn
I1216 19:12:23.408350 28860 net.cpp:100] Creating Layer stage2_2_branch1b_bn
I1216 19:12:23.408355 28860 net.cpp:434] stage2_2_branch1b_bn <- stage2_2_branch1b
I1216 19:12:23.408365 28860 net.cpp:395] stage2_2_branch1b_bn -> stage2_2_branch1b (in-place)
I1216 19:12:23.408658 28860 net.cpp:150] Setting up stage2_2_branch1b_bn
I1216 19:12:23.408666 28860 net.cpp:157] Top shape: 30 8 64 64 (983040)
I1216 19:12:23.408685 28860 net.cpp:165] Memory required for data: 4616356608
I1216 19:12:23.408696 28860 layer_factory.hpp:77] Creating layer stage2_2_branch1b_scale
I1216 19:12:23.408704 28860 net.cpp:100] Creating Layer stage2_2_branch1b_scale
I1216 19:12:23.408707 28860 net.cpp:434] stage2_2_branch1b_scale <- stage2_2_branch1b
I1216 19:12:23.408720 28860 net.cpp:395] stage2_2_branch1b_scale -> stage2_2_branch1b (in-place)
I1216 19:12:23.408778 28860 layer_factory.hpp:77] Creating layer stage2_2_branch1b_scale
I1216 19:12:23.408941 28860 net.cpp:150] Setting up stage2_2_branch1b_scale
I1216 19:12:23.408953 28860 net.cpp:157] Top shape: 30 8 64 64 (983040)
I1216 19:12:23.408957 28860 net.cpp:165] Memory required for data: 4620288768
I1216 19:12:23.408967 28860 layer_factory.hpp:77] Creating layer stage2_2_branch1b_relu
I1216 19:12:23.408974 28860 net.cpp:100] Creating Layer stage2_2_branch1b_relu
I1216 19:12:23.408978 28860 net.cpp:434] stage2_2_branch1b_relu <- stage2_2_branch1b
I1216 19:12:23.408983 28860 net.cpp:395] stage2_2_branch1b_relu -> stage2_2_branch1b (in-place)
I1216 19:12:23.409756 28860 net.cpp:150] Setting up stage2_2_branch1b_relu
I1216 19:12:23.409771 28860 net.cpp:157] Top shape: 30 8 64 64 (983040)
I1216 19:12:23.409775 28860 net.cpp:165] Memory required for data: 4624220928
I1216 19:12:23.409780 28860 layer_factory.hpp:77] Creating layer stage2_2_branch2a
I1216 19:12:23.409792 28860 net.cpp:100] Creating Layer stage2_2_branch2a
I1216 19:12:23.409798 28860 net.cpp:434] stage2_2_branch2a <- stage2_1_concat_stage2_1_concat_0_split_1
I1216 19:12:23.409807 28860 net.cpp:408] stage2_2_branch2a -> stage2_2_branch2a
I1216 19:12:23.413247 28860 net.cpp:150] Setting up stage2_2_branch2a
I1216 19:12:23.413264 28860 net.cpp:157] Top shape: 30 16 64 64 (1966080)
I1216 19:12:23.413269 28860 net.cpp:165] Memory required for data: 4632085248
I1216 19:12:23.413275 28860 layer_factory.hpp:77] Creating layer stage2_2_branch2a_bn
I1216 19:12:23.413285 28860 net.cpp:100] Creating Layer stage2_2_branch2a_bn
I1216 19:12:23.413291 28860 net.cpp:434] stage2_2_branch2a_bn <- stage2_2_branch2a
I1216 19:12:23.413301 28860 net.cpp:395] stage2_2_branch2a_bn -> stage2_2_branch2a (in-place)
I1216 19:12:23.413589 28860 net.cpp:150] Setting up stage2_2_branch2a_bn
I1216 19:12:23.413597 28860 net.cpp:157] Top shape: 30 16 64 64 (1966080)
I1216 19:12:23.413601 28860 net.cpp:165] Memory required for data: 4639949568
I1216 19:12:23.413609 28860 layer_factory.hpp:77] Creating layer stage2_2_branch2a_scale
I1216 19:12:23.413625 28860 net.cpp:100] Creating Layer stage2_2_branch2a_scale
I1216 19:12:23.413628 28860 net.cpp:434] stage2_2_branch2a_scale <- stage2_2_branch2a
I1216 19:12:23.413635 28860 net.cpp:395] stage2_2_branch2a_scale -> stage2_2_branch2a (in-place)
I1216 19:12:23.413691 28860 layer_factory.hpp:77] Creating layer stage2_2_branch2a_scale
I1216 19:12:23.413856 28860 net.cpp:150] Setting up stage2_2_branch2a_scale
I1216 19:12:23.413866 28860 net.cpp:157] Top shape: 30 16 64 64 (1966080)
I1216 19:12:23.413870 28860 net.cpp:165] Memory required for data: 4647813888
I1216 19:12:23.413877 28860 layer_factory.hpp:77] Creating layer stage2_2_branch2a_relu
I1216 19:12:23.413882 28860 net.cpp:100] Creating Layer stage2_2_branch2a_relu
I1216 19:12:23.413887 28860 net.cpp:434] stage2_2_branch2a_relu <- stage2_2_branch2a
I1216 19:12:23.413895 28860 net.cpp:395] stage2_2_branch2a_relu -> stage2_2_branch2a (in-place)
I1216 19:12:23.415496 28860 net.cpp:150] Setting up stage2_2_branch2a_relu
I1216 19:12:23.415513 28860 net.cpp:157] Top shape: 30 16 64 64 (1966080)
I1216 19:12:23.415518 28860 net.cpp:165] Memory required for data: 4655678208
I1216 19:12:23.415522 28860 layer_factory.hpp:77] Creating layer stage2_2_branch2b
I1216 19:12:23.415535 28860 net.cpp:100] Creating Layer stage2_2_branch2b
I1216 19:12:23.415540 28860 net.cpp:434] stage2_2_branch2b <- stage2_2_branch2a
I1216 19:12:23.415551 28860 net.cpp:408] stage2_2_branch2b -> stage2_2_branch2b
I1216 19:12:23.419070 28860 net.cpp:150] Setting up stage2_2_branch2b
I1216 19:12:23.419086 28860 net.cpp:157] Top shape: 30 8 64 64 (983040)
I1216 19:12:23.419104 28860 net.cpp:165] Memory required for data: 4659610368
I1216 19:12:23.419111 28860 layer_factory.hpp:77] Creating layer stage2_2_branch2b_bn
I1216 19:12:23.419126 28860 net.cpp:100] Creating Layer stage2_2_branch2b_bn
I1216 19:12:23.419129 28860 net.cpp:434] stage2_2_branch2b_bn <- stage2_2_branch2b
I1216 19:12:23.419138 28860 net.cpp:395] stage2_2_branch2b_bn -> stage2_2_branch2b (in-place)
I1216 19:12:23.419435 28860 net.cpp:150] Setting up stage2_2_branch2b_bn
I1216 19:12:23.419445 28860 net.cpp:157] Top shape: 30 8 64 64 (983040)
I1216 19:12:23.419447 28860 net.cpp:165] Memory required for data: 4663542528
I1216 19:12:23.419456 28860 layer_factory.hpp:77] Creating layer stage2_2_branch2b_scale
I1216 19:12:23.419466 28860 net.cpp:100] Creating Layer stage2_2_branch2b_scale
I1216 19:12:23.419471 28860 net.cpp:434] stage2_2_branch2b_scale <- stage2_2_branch2b
I1216 19:12:23.419476 28860 net.cpp:395] stage2_2_branch2b_scale -> stage2_2_branch2b (in-place)
I1216 19:12:23.419533 28860 layer_factory.hpp:77] Creating layer stage2_2_branch2b_scale
I1216 19:12:23.419695 28860 net.cpp:150] Setting up stage2_2_branch2b_scale
I1216 19:12:23.419705 28860 net.cpp:157] Top shape: 30 8 64 64 (983040)
I1216 19:12:23.419708 28860 net.cpp:165] Memory required for data: 4667474688
I1216 19:12:23.419715 28860 layer_factory.hpp:77] Creating layer stage2_2_branch2b_relu
I1216 19:12:23.419721 28860 net.cpp:100] Creating Layer stage2_2_branch2b_relu
I1216 19:12:23.419726 28860 net.cpp:434] stage2_2_branch2b_relu <- stage2_2_branch2b
I1216 19:12:23.419734 28860 net.cpp:395] stage2_2_branch2b_relu -> stage2_2_branch2b (in-place)
I1216 19:12:23.420503 28860 net.cpp:150] Setting up stage2_2_branch2b_relu
I1216 19:12:23.420516 28860 net.cpp:157] Top shape: 30 8 64 64 (983040)
I1216 19:12:23.420521 28860 net.cpp:165] Memory required for data: 4671406848
I1216 19:12:23.420524 28860 layer_factory.hpp:77] Creating layer stage2_2_branch2c
I1216 19:12:23.420536 28860 net.cpp:100] Creating Layer stage2_2_branch2c
I1216 19:12:23.420542 28860 net.cpp:434] stage2_2_branch2c <- stage2_2_branch2b
I1216 19:12:23.420552 28860 net.cpp:408] stage2_2_branch2c -> stage2_2_branch2c
I1216 19:12:23.430742 28860 net.cpp:150] Setting up stage2_2_branch2c
I1216 19:12:23.430761 28860 net.cpp:157] Top shape: 30 8 64 64 (983040)
I1216 19:12:23.430766 28860 net.cpp:165] Memory required for data: 4675339008
I1216 19:12:23.430776 28860 layer_factory.hpp:77] Creating layer stage2_2_branch2c_bn
I1216 19:12:23.430788 28860 net.cpp:100] Creating Layer stage2_2_branch2c_bn
I1216 19:12:23.430793 28860 net.cpp:434] stage2_2_branch2c_bn <- stage2_2_branch2c
I1216 19:12:23.430801 28860 net.cpp:395] stage2_2_branch2c_bn -> stage2_2_branch2c (in-place)
I1216 19:12:23.431108 28860 net.cpp:150] Setting up stage2_2_branch2c_bn
I1216 19:12:23.431118 28860 net.cpp:157] Top shape: 30 8 64 64 (983040)
I1216 19:12:23.431123 28860 net.cpp:165] Memory required for data: 4679271168
I1216 19:12:23.431130 28860 layer_factory.hpp:77] Creating layer stage2_2_branch2c_scale
I1216 19:12:23.431140 28860 net.cpp:100] Creating Layer stage2_2_branch2c_scale
I1216 19:12:23.431144 28860 net.cpp:434] stage2_2_branch2c_scale <- stage2_2_branch2c
I1216 19:12:23.431150 28860 net.cpp:395] stage2_2_branch2c_scale -> stage2_2_branch2c (in-place)
I1216 19:12:23.431207 28860 layer_factory.hpp:77] Creating layer stage2_2_branch2c_scale
I1216 19:12:23.431371 28860 net.cpp:150] Setting up stage2_2_branch2c_scale
I1216 19:12:23.431380 28860 net.cpp:157] Top shape: 30 8 64 64 (983040)
I1216 19:12:23.431385 28860 net.cpp:165] Memory required for data: 4683203328
I1216 19:12:23.431391 28860 layer_factory.hpp:77] Creating layer stage2_2_branch2c_relu
I1216 19:12:23.431401 28860 net.cpp:100] Creating Layer stage2_2_branch2c_relu
I1216 19:12:23.431404 28860 net.cpp:434] stage2_2_branch2c_relu <- stage2_2_branch2c
I1216 19:12:23.431412 28860 net.cpp:395] stage2_2_branch2c_relu -> stage2_2_branch2c (in-place)
I1216 19:12:23.432193 28860 net.cpp:150] Setting up stage2_2_branch2c_relu
I1216 19:12:23.432221 28860 net.cpp:157] Top shape: 30 8 64 64 (983040)
I1216 19:12:23.432226 28860 net.cpp:165] Memory required for data: 4687135488
I1216 19:12:23.432230 28860 layer_factory.hpp:77] Creating layer stage2_2_concat
I1216 19:12:23.432240 28860 net.cpp:100] Creating Layer stage2_2_concat
I1216 19:12:23.432246 28860 net.cpp:434] stage2_2_concat <- stage2_1_concat_stage2_1_concat_0_split_2
I1216 19:12:23.432252 28860 net.cpp:434] stage2_2_concat <- stage2_2_branch1b
I1216 19:12:23.432257 28860 net.cpp:434] stage2_2_concat <- stage2_2_branch2c
I1216 19:12:23.432263 28860 net.cpp:408] stage2_2_concat -> stage2_2_concat
I1216 19:12:23.432309 28860 net.cpp:150] Setting up stage2_2_concat
I1216 19:12:23.432317 28860 net.cpp:157] Top shape: 30 80 64 64 (9830400)
I1216 19:12:23.432322 28860 net.cpp:165] Memory required for data: 4726457088
I1216 19:12:23.432327 28860 layer_factory.hpp:77] Creating layer stage2_tb
I1216 19:12:23.432339 28860 net.cpp:100] Creating Layer stage2_tb
I1216 19:12:23.432346 28860 net.cpp:434] stage2_tb <- stage2_2_concat
I1216 19:12:23.432355 28860 net.cpp:408] stage2_tb -> stage2_tb
I1216 19:12:23.435904 28860 net.cpp:150] Setting up stage2_tb
I1216 19:12:23.435925 28860 net.cpp:157] Top shape: 30 80 64 64 (9830400)
I1216 19:12:23.435930 28860 net.cpp:165] Memory required for data: 4765778688
I1216 19:12:23.435935 28860 layer_factory.hpp:77] Creating layer stage2_tb_bn
I1216 19:12:23.435943 28860 net.cpp:100] Creating Layer stage2_tb_bn
I1216 19:12:23.435948 28860 net.cpp:434] stage2_tb_bn <- stage2_tb
I1216 19:12:23.435957 28860 net.cpp:395] stage2_tb_bn -> stage2_tb (in-place)
I1216 19:12:23.436256 28860 net.cpp:150] Setting up stage2_tb_bn
I1216 19:12:23.436265 28860 net.cpp:157] Top shape: 30 80 64 64 (9830400)
I1216 19:12:23.436270 28860 net.cpp:165] Memory required for data: 4805100288
I1216 19:12:23.436278 28860 layer_factory.hpp:77] Creating layer stage2_tb_scale
I1216 19:12:23.436285 28860 net.cpp:100] Creating Layer stage2_tb_scale
I1216 19:12:23.436290 28860 net.cpp:434] stage2_tb_scale <- stage2_tb
I1216 19:12:23.436297 28860 net.cpp:395] stage2_tb_scale -> stage2_tb (in-place)
I1216 19:12:23.436349 28860 layer_factory.hpp:77] Creating layer stage2_tb_scale
I1216 19:12:23.436518 28860 net.cpp:150] Setting up stage2_tb_scale
I1216 19:12:23.436527 28860 net.cpp:157] Top shape: 30 80 64 64 (9830400)
I1216 19:12:23.436532 28860 net.cpp:165] Memory required for data: 4844421888
I1216 19:12:23.436540 28860 layer_factory.hpp:77] Creating layer stage2_tb_relu
I1216 19:12:23.436547 28860 net.cpp:100] Creating Layer stage2_tb_relu
I1216 19:12:23.436550 28860 net.cpp:434] stage2_tb_relu <- stage2_tb
I1216 19:12:23.436560 28860 net.cpp:395] stage2_tb_relu -> stage2_tb (in-place)
I1216 19:12:23.438148 28860 net.cpp:150] Setting up stage2_tb_relu
I1216 19:12:23.438166 28860 net.cpp:157] Top shape: 30 80 64 64 (9830400)
I1216 19:12:23.438171 28860 net.cpp:165] Memory required for data: 4883743488
I1216 19:12:23.438176 28860 layer_factory.hpp:77] Creating layer stage2_tb_pool
I1216 19:12:23.438184 28860 net.cpp:100] Creating Layer stage2_tb_pool
I1216 19:12:23.438189 28860 net.cpp:434] stage2_tb_pool <- stage2_tb
I1216 19:12:23.438197 28860 net.cpp:408] stage2_tb_pool -> stage2_tb_pool
I1216 19:12:23.439847 28860 net.cpp:150] Setting up stage2_tb_pool
I1216 19:12:23.439863 28860 net.cpp:157] Top shape: 30 80 32 32 (2457600)
I1216 19:12:23.439867 28860 net.cpp:165] Memory required for data: 4893573888
I1216 19:12:23.439872 28860 layer_factory.hpp:77] Creating layer stage2_tb_pool_stage2_tb_pool_0_split
I1216 19:12:23.439883 28860 net.cpp:100] Creating Layer stage2_tb_pool_stage2_tb_pool_0_split
I1216 19:12:23.439888 28860 net.cpp:434] stage2_tb_pool_stage2_tb_pool_0_split <- stage2_tb_pool
I1216 19:12:23.439895 28860 net.cpp:408] stage2_tb_pool_stage2_tb_pool_0_split -> stage2_tb_pool_stage2_tb_pool_0_split_0
I1216 19:12:23.439905 28860 net.cpp:408] stage2_tb_pool_stage2_tb_pool_0_split -> stage2_tb_pool_stage2_tb_pool_0_split_1
I1216 19:12:23.439916 28860 net.cpp:408] stage2_tb_pool_stage2_tb_pool_0_split -> stage2_tb_pool_stage2_tb_pool_0_split_2
I1216 19:12:23.439939 28860 net.cpp:408] stage2_tb_pool_stage2_tb_pool_0_split -> stage2_tb_pool_stage2_tb_pool_0_split_3
I1216 19:12:23.439945 28860 net.cpp:408] stage2_tb_pool_stage2_tb_pool_0_split -> stage2_tb_pool_stage2_tb_pool_0_split_4
I1216 19:12:23.439952 28860 net.cpp:408] stage2_tb_pool_stage2_tb_pool_0_split -> stage2_tb_pool_stage2_tb_pool_0_split_5
I1216 19:12:23.440088 28860 net.cpp:150] Setting up stage2_tb_pool_stage2_tb_pool_0_split
I1216 19:12:23.440096 28860 net.cpp:157] Top shape: 30 80 32 32 (2457600)
I1216 19:12:23.440101 28860 net.cpp:157] Top shape: 30 80 32 32 (2457600)
I1216 19:12:23.440106 28860 net.cpp:157] Top shape: 30 80 32 32 (2457600)
I1216 19:12:23.440111 28860 net.cpp:157] Top shape: 30 80 32 32 (2457600)
I1216 19:12:23.440115 28860 net.cpp:157] Top shape: 30 80 32 32 (2457600)
I1216 19:12:23.440120 28860 net.cpp:157] Top shape: 30 80 32 32 (2457600)
I1216 19:12:23.440124 28860 net.cpp:165] Memory required for data: 4952556288
I1216 19:12:23.440130 28860 layer_factory.hpp:77] Creating layer stage3_1_branch1a
I1216 19:12:23.440148 28860 net.cpp:100] Creating Layer stage3_1_branch1a
I1216 19:12:23.440155 28860 net.cpp:434] stage3_1_branch1a <- stage2_tb_pool_stage2_tb_pool_0_split_0
I1216 19:12:23.440162 28860 net.cpp:408] stage3_1_branch1a -> stage3_1_branch1a
I1216 19:12:23.445622 28860 net.cpp:150] Setting up stage3_1_branch1a
I1216 19:12:23.445641 28860 net.cpp:157] Top shape: 30 16 32 32 (491520)
I1216 19:12:23.445647 28860 net.cpp:165] Memory required for data: 4954522368
I1216 19:12:23.445653 28860 layer_factory.hpp:77] Creating layer stage3_1_branch1a_bn
I1216 19:12:23.445665 28860 net.cpp:100] Creating Layer stage3_1_branch1a_bn
I1216 19:12:23.445670 28860 net.cpp:434] stage3_1_branch1a_bn <- stage3_1_branch1a
I1216 19:12:23.445677 28860 net.cpp:395] stage3_1_branch1a_bn -> stage3_1_branch1a (in-place)
I1216 19:12:23.445983 28860 net.cpp:150] Setting up stage3_1_branch1a_bn
I1216 19:12:23.445993 28860 net.cpp:157] Top shape: 30 16 32 32 (491520)
I1216 19:12:23.445996 28860 net.cpp:165] Memory required for data: 4956488448
I1216 19:12:23.446025 28860 layer_factory.hpp:77] Creating layer stage3_1_branch1a_scale
I1216 19:12:23.446033 28860 net.cpp:100] Creating Layer stage3_1_branch1a_scale
I1216 19:12:23.446038 28860 net.cpp:434] stage3_1_branch1a_scale <- stage3_1_branch1a
I1216 19:12:23.446048 28860 net.cpp:395] stage3_1_branch1a_scale -> stage3_1_branch1a (in-place)
I1216 19:12:23.446105 28860 layer_factory.hpp:77] Creating layer stage3_1_branch1a_scale
I1216 19:12:23.446264 28860 net.cpp:150] Setting up stage3_1_branch1a_scale
I1216 19:12:23.446274 28860 net.cpp:157] Top shape: 30 16 32 32 (491520)
I1216 19:12:23.446277 28860 net.cpp:165] Memory required for data: 4958454528
I1216 19:12:23.446286 28860 layer_factory.hpp:77] Creating layer stage3_1_branch1a_relu
I1216 19:12:23.446295 28860 net.cpp:100] Creating Layer stage3_1_branch1a_relu
I1216 19:12:23.446300 28860 net.cpp:434] stage3_1_branch1a_relu <- stage3_1_branch1a
I1216 19:12:23.446307 28860 net.cpp:395] stage3_1_branch1a_relu -> stage3_1_branch1a (in-place)
I1216 19:12:23.447109 28860 net.cpp:150] Setting up stage3_1_branch1a_relu
I1216 19:12:23.447122 28860 net.cpp:157] Top shape: 30 16 32 32 (491520)
I1216 19:12:23.447127 28860 net.cpp:165] Memory required for data: 4960420608
I1216 19:12:23.447132 28860 layer_factory.hpp:77] Creating layer stage3_1_branch1b
I1216 19:12:23.447149 28860 net.cpp:100] Creating Layer stage3_1_branch1b
I1216 19:12:23.447154 28860 net.cpp:434] stage3_1_branch1b <- stage3_1_branch1a
I1216 19:12:23.447165 28860 net.cpp:408] stage3_1_branch1b -> stage3_1_branch1b
I1216 19:12:23.451707 28860 net.cpp:150] Setting up stage3_1_branch1b
I1216 19:12:23.451725 28860 net.cpp:157] Top shape: 30 8 32 32 (245760)
I1216 19:12:23.451730 28860 net.cpp:165] Memory required for data: 4961403648
I1216 19:12:23.451737 28860 layer_factory.hpp:77] Creating layer stage3_1_branch1b_bn
I1216 19:12:23.451748 28860 net.cpp:100] Creating Layer stage3_1_branch1b_bn
I1216 19:12:23.451768 28860 net.cpp:434] stage3_1_branch1b_bn <- stage3_1_branch1b
I1216 19:12:23.451776 28860 net.cpp:395] stage3_1_branch1b_bn -> stage3_1_branch1b (in-place)
I1216 19:12:23.452077 28860 net.cpp:150] Setting up stage3_1_branch1b_bn
I1216 19:12:23.452086 28860 net.cpp:157] Top shape: 30 8 32 32 (245760)
I1216 19:12:23.452090 28860 net.cpp:165] Memory required for data: 4962386688
I1216 19:12:23.452100 28860 layer_factory.hpp:77] Creating layer stage3_1_branch1b_scale
I1216 19:12:23.452109 28860 net.cpp:100] Creating Layer stage3_1_branch1b_scale
I1216 19:12:23.452113 28860 net.cpp:434] stage3_1_branch1b_scale <- stage3_1_branch1b
I1216 19:12:23.452121 28860 net.cpp:395] stage3_1_branch1b_scale -> stage3_1_branch1b (in-place)
I1216 19:12:23.452178 28860 layer_factory.hpp:77] Creating layer stage3_1_branch1b_scale
I1216 19:12:23.452343 28860 net.cpp:150] Setting up stage3_1_branch1b_scale
I1216 19:12:23.452353 28860 net.cpp:157] Top shape: 30 8 32 32 (245760)
I1216 19:12:23.452356 28860 net.cpp:165] Memory required for data: 4963369728
I1216 19:12:23.452363 28860 layer_factory.hpp:77] Creating layer stage3_1_branch1b_relu
I1216 19:12:23.452374 28860 net.cpp:100] Creating Layer stage3_1_branch1b_relu
I1216 19:12:23.452379 28860 net.cpp:434] stage3_1_branch1b_relu <- stage3_1_branch1b
I1216 19:12:23.452384 28860 net.cpp:395] stage3_1_branch1b_relu -> stage3_1_branch1b (in-place)
I1216 19:12:23.453968 28860 net.cpp:150] Setting up stage3_1_branch1b_relu
I1216 19:12:23.453984 28860 net.cpp:157] Top shape: 30 8 32 32 (245760)
I1216 19:12:23.453989 28860 net.cpp:165] Memory required for data: 4964352768
I1216 19:12:23.453992 28860 layer_factory.hpp:77] Creating layer stage3_1_branch2a
I1216 19:12:23.454008 28860 net.cpp:100] Creating Layer stage3_1_branch2a
I1216 19:12:23.454015 28860 net.cpp:434] stage3_1_branch2a <- stage2_tb_pool_stage2_tb_pool_0_split_1
I1216 19:12:23.454022 28860 net.cpp:408] stage3_1_branch2a -> stage3_1_branch2a
I1216 19:12:23.457567 28860 net.cpp:150] Setting up stage3_1_branch2a
I1216 19:12:23.457585 28860 net.cpp:157] Top shape: 30 16 32 32 (491520)
I1216 19:12:23.457590 28860 net.cpp:165] Memory required for data: 4966318848
I1216 19:12:23.457597 28860 layer_factory.hpp:77] Creating layer stage3_1_branch2a_bn
I1216 19:12:23.457607 28860 net.cpp:100] Creating Layer stage3_1_branch2a_bn
I1216 19:12:23.457612 28860 net.cpp:434] stage3_1_branch2a_bn <- stage3_1_branch2a
I1216 19:12:23.457619 28860 net.cpp:395] stage3_1_branch2a_bn -> stage3_1_branch2a (in-place)
I1216 19:12:23.457922 28860 net.cpp:150] Setting up stage3_1_branch2a_bn
I1216 19:12:23.457931 28860 net.cpp:157] Top shape: 30 16 32 32 (491520)
I1216 19:12:23.457934 28860 net.cpp:165] Memory required for data: 4968284928
I1216 19:12:23.457945 28860 layer_factory.hpp:77] Creating layer stage3_1_branch2a_scale
I1216 19:12:23.457952 28860 net.cpp:100] Creating Layer stage3_1_branch2a_scale
I1216 19:12:23.457957 28860 net.cpp:434] stage3_1_branch2a_scale <- stage3_1_branch2a
I1216 19:12:23.457965 28860 net.cpp:395] stage3_1_branch2a_scale -> stage3_1_branch2a (in-place)
I1216 19:12:23.458021 28860 layer_factory.hpp:77] Creating layer stage3_1_branch2a_scale
I1216 19:12:23.458182 28860 net.cpp:150] Setting up stage3_1_branch2a_scale
I1216 19:12:23.458197 28860 net.cpp:157] Top shape: 30 16 32 32 (491520)
I1216 19:12:23.458202 28860 net.cpp:165] Memory required for data: 4970251008
I1216 19:12:23.458210 28860 layer_factory.hpp:77] Creating layer stage3_1_branch2a_relu
I1216 19:12:23.458216 28860 net.cpp:100] Creating Layer stage3_1_branch2a_relu
I1216 19:12:23.458220 28860 net.cpp:434] stage3_1_branch2a_relu <- stage3_1_branch2a
I1216 19:12:23.458225 28860 net.cpp:395] stage3_1_branch2a_relu -> stage3_1_branch2a (in-place)
I1216 19:12:23.459020 28860 net.cpp:150] Setting up stage3_1_branch2a_relu
I1216 19:12:23.459033 28860 net.cpp:157] Top shape: 30 16 32 32 (491520)
I1216 19:12:23.459038 28860 net.cpp:165] Memory required for data: 4972217088
I1216 19:12:23.459041 28860 layer_factory.hpp:77] Creating layer stage3_1_branch2b
I1216 19:12:23.459069 28860 net.cpp:100] Creating Layer stage3_1_branch2b
I1216 19:12:23.459075 28860 net.cpp:434] stage3_1_branch2b <- stage3_1_branch2a
I1216 19:12:23.459085 28860 net.cpp:408] stage3_1_branch2b -> stage3_1_branch2b
I1216 19:12:23.465066 28860 net.cpp:150] Setting up stage3_1_branch2b
I1216 19:12:23.465086 28860 net.cpp:157] Top shape: 30 8 32 32 (245760)
I1216 19:12:23.465091 28860 net.cpp:165] Memory required for data: 4973200128
I1216 19:12:23.465101 28860 layer_factory.hpp:77] Creating layer stage3_1_branch2b_bn
I1216 19:12:23.465111 28860 net.cpp:100] Creating Layer stage3_1_branch2b_bn
I1216 19:12:23.465116 28860 net.cpp:434] stage3_1_branch2b_bn <- stage3_1_branch2b
I1216 19:12:23.465126 28860 net.cpp:395] stage3_1_branch2b_bn -> stage3_1_branch2b (in-place)
I1216 19:12:23.465426 28860 net.cpp:150] Setting up stage3_1_branch2b_bn
I1216 19:12:23.465436 28860 net.cpp:157] Top shape: 30 8 32 32 (245760)
I1216 19:12:23.465440 28860 net.cpp:165] Memory required for data: 4974183168
I1216 19:12:23.465450 28860 layer_factory.hpp:77] Creating layer stage3_1_branch2b_scale
I1216 19:12:23.465458 28860 net.cpp:100] Creating Layer stage3_1_branch2b_scale
I1216 19:12:23.465462 28860 net.cpp:434] stage3_1_branch2b_scale <- stage3_1_branch2b
I1216 19:12:23.465471 28860 net.cpp:395] stage3_1_branch2b_scale -> stage3_1_branch2b (in-place)
I1216 19:12:23.465525 28860 layer_factory.hpp:77] Creating layer stage3_1_branch2b_scale
I1216 19:12:23.465695 28860 net.cpp:150] Setting up stage3_1_branch2b_scale
I1216 19:12:23.465704 28860 net.cpp:157] Top shape: 30 8 32 32 (245760)
I1216 19:12:23.465709 28860 net.cpp:165] Memory required for data: 4975166208
I1216 19:12:23.465716 28860 layer_factory.hpp:77] Creating layer stage3_1_branch2b_relu
I1216 19:12:23.465725 28860 net.cpp:100] Creating Layer stage3_1_branch2b_relu
I1216 19:12:23.465729 28860 net.cpp:434] stage3_1_branch2b_relu <- stage3_1_branch2b
I1216 19:12:23.465737 28860 net.cpp:395] stage3_1_branch2b_relu -> stage3_1_branch2b (in-place)
I1216 19:12:23.466521 28860 net.cpp:150] Setting up stage3_1_branch2b_relu
I1216 19:12:23.466536 28860 net.cpp:157] Top shape: 30 8 32 32 (245760)
I1216 19:12:23.466540 28860 net.cpp:165] Memory required for data: 4976149248
I1216 19:12:23.466547 28860 layer_factory.hpp:77] Creating layer stage3_1_branch2c
I1216 19:12:23.466560 28860 net.cpp:100] Creating Layer stage3_1_branch2c
I1216 19:12:23.466565 28860 net.cpp:434] stage3_1_branch2c <- stage3_1_branch2b
I1216 19:12:23.466573 28860 net.cpp:408] stage3_1_branch2c -> stage3_1_branch2c
I1216 19:12:23.470901 28860 net.cpp:150] Setting up stage3_1_branch2c
I1216 19:12:23.470918 28860 net.cpp:157] Top shape: 30 8 32 32 (245760)
I1216 19:12:23.470922 28860 net.cpp:165] Memory required for data: 4977132288
I1216 19:12:23.470929 28860 layer_factory.hpp:77] Creating layer stage3_1_branch2c_bn
I1216 19:12:23.470942 28860 net.cpp:100] Creating Layer stage3_1_branch2c_bn
I1216 19:12:23.470947 28860 net.cpp:434] stage3_1_branch2c_bn <- stage3_1_branch2c
I1216 19:12:23.470952 28860 net.cpp:395] stage3_1_branch2c_bn -> stage3_1_branch2c (in-place)
I1216 19:12:23.471266 28860 net.cpp:150] Setting up stage3_1_branch2c_bn
I1216 19:12:23.471276 28860 net.cpp:157] Top shape: 30 8 32 32 (245760)
I1216 19:12:23.471279 28860 net.cpp:165] Memory required for data: 4978115328
I1216 19:12:23.471288 28860 layer_factory.hpp:77] Creating layer stage3_1_branch2c_scale
I1216 19:12:23.471295 28860 net.cpp:100] Creating Layer stage3_1_branch2c_scale
I1216 19:12:23.471300 28860 net.cpp:434] stage3_1_branch2c_scale <- stage3_1_branch2c
I1216 19:12:23.471314 28860 net.cpp:395] stage3_1_branch2c_scale -> stage3_1_branch2c (in-place)
I1216 19:12:23.471372 28860 layer_factory.hpp:77] Creating layer stage3_1_branch2c_scale
I1216 19:12:23.471544 28860 net.cpp:150] Setting up stage3_1_branch2c_scale
I1216 19:12:23.471554 28860 net.cpp:157] Top shape: 30 8 32 32 (245760)
I1216 19:12:23.471556 28860 net.cpp:165] Memory required for data: 4979098368
I1216 19:12:23.471566 28860 layer_factory.hpp:77] Creating layer stage3_1_branch2c_relu
I1216 19:12:23.471590 28860 net.cpp:100] Creating Layer stage3_1_branch2c_relu
I1216 19:12:23.471595 28860 net.cpp:434] stage3_1_branch2c_relu <- stage3_1_branch2c
I1216 19:12:23.471602 28860 net.cpp:395] stage3_1_branch2c_relu -> stage3_1_branch2c (in-place)
I1216 19:12:23.473212 28860 net.cpp:150] Setting up stage3_1_branch2c_relu
I1216 19:12:23.473227 28860 net.cpp:157] Top shape: 30 8 32 32 (245760)
I1216 19:12:23.473232 28860 net.cpp:165] Memory required for data: 4980081408
I1216 19:12:23.473237 28860 layer_factory.hpp:77] Creating layer stage3_1_concat
I1216 19:12:23.473248 28860 net.cpp:100] Creating Layer stage3_1_concat
I1216 19:12:23.473251 28860 net.cpp:434] stage3_1_concat <- stage2_tb_pool_stage2_tb_pool_0_split_2
I1216 19:12:23.473260 28860 net.cpp:434] stage3_1_concat <- stage3_1_branch1b
I1216 19:12:23.473265 28860 net.cpp:434] stage3_1_concat <- stage3_1_branch2c
I1216 19:12:23.473273 28860 net.cpp:408] stage3_1_concat -> stage3_1_concat
I1216 19:12:23.473318 28860 net.cpp:150] Setting up stage3_1_concat
I1216 19:12:23.473328 28860 net.cpp:157] Top shape: 30 96 32 32 (2949120)
I1216 19:12:23.473332 28860 net.cpp:165] Memory required for data: 4991877888
I1216 19:12:23.473335 28860 layer_factory.hpp:77] Creating layer stage3_1_concat_stage3_1_concat_0_split
I1216 19:12:23.473342 28860 net.cpp:100] Creating Layer stage3_1_concat_stage3_1_concat_0_split
I1216 19:12:23.473347 28860 net.cpp:434] stage3_1_concat_stage3_1_concat_0_split <- stage3_1_concat
I1216 19:12:23.473356 28860 net.cpp:408] stage3_1_concat_stage3_1_concat_0_split -> stage3_1_concat_stage3_1_concat_0_split_0
I1216 19:12:23.473364 28860 net.cpp:408] stage3_1_concat_stage3_1_concat_0_split -> stage3_1_concat_stage3_1_concat_0_split_1
I1216 19:12:23.473371 28860 net.cpp:408] stage3_1_concat_stage3_1_concat_0_split -> stage3_1_concat_stage3_1_concat_0_split_2
I1216 19:12:23.473446 28860 net.cpp:150] Setting up stage3_1_concat_stage3_1_concat_0_split
I1216 19:12:23.473454 28860 net.cpp:157] Top shape: 30 96 32 32 (2949120)
I1216 19:12:23.473459 28860 net.cpp:157] Top shape: 30 96 32 32 (2949120)
I1216 19:12:23.473464 28860 net.cpp:157] Top shape: 30 96 32 32 (2949120)
I1216 19:12:23.473469 28860 net.cpp:165] Memory required for data: 5027267328
I1216 19:12:23.473472 28860 layer_factory.hpp:77] Creating layer stage3_2_branch1a
I1216 19:12:23.473485 28860 net.cpp:100] Creating Layer stage3_2_branch1a
I1216 19:12:23.473492 28860 net.cpp:434] stage3_2_branch1a <- stage3_1_concat_stage3_1_concat_0_split_0
I1216 19:12:23.473503 28860 net.cpp:408] stage3_2_branch1a -> stage3_2_branch1a
I1216 19:12:23.477061 28860 net.cpp:150] Setting up stage3_2_branch1a
I1216 19:12:23.477082 28860 net.cpp:157] Top shape: 30 16 32 32 (491520)
I1216 19:12:23.477087 28860 net.cpp:165] Memory required for data: 5029233408
I1216 19:12:23.477094 28860 layer_factory.hpp:77] Creating layer stage3_2_branch1a_bn
I1216 19:12:23.477102 28860 net.cpp:100] Creating Layer stage3_2_branch1a_bn
I1216 19:12:23.477108 28860 net.cpp:434] stage3_2_branch1a_bn <- stage3_2_branch1a
I1216 19:12:23.477116 28860 net.cpp:395] stage3_2_branch1a_bn -> stage3_2_branch1a (in-place)
I1216 19:12:23.477423 28860 net.cpp:150] Setting up stage3_2_branch1a_bn
I1216 19:12:23.477432 28860 net.cpp:157] Top shape: 30 16 32 32 (491520)
I1216 19:12:23.477437 28860 net.cpp:165] Memory required for data: 5031199488
I1216 19:12:23.477444 28860 layer_factory.hpp:77] Creating layer stage3_2_branch1a_scale
I1216 19:12:23.477452 28860 net.cpp:100] Creating Layer stage3_2_branch1a_scale
I1216 19:12:23.477457 28860 net.cpp:434] stage3_2_branch1a_scale <- stage3_2_branch1a
I1216 19:12:23.477464 28860 net.cpp:395] stage3_2_branch1a_scale -> stage3_2_branch1a (in-place)
I1216 19:12:23.477520 28860 layer_factory.hpp:77] Creating layer stage3_2_branch1a_scale
I1216 19:12:23.477689 28860 net.cpp:150] Setting up stage3_2_branch1a_scale
I1216 19:12:23.477697 28860 net.cpp:157] Top shape: 30 16 32 32 (491520)
I1216 19:12:23.477701 28860 net.cpp:165] Memory required for data: 5033165568
I1216 19:12:23.477725 28860 layer_factory.hpp:77] Creating layer stage3_2_branch1a_relu
I1216 19:12:23.477732 28860 net.cpp:100] Creating Layer stage3_2_branch1a_relu
I1216 19:12:23.477736 28860 net.cpp:434] stage3_2_branch1a_relu <- stage3_2_branch1a
I1216 19:12:23.477744 28860 net.cpp:395] stage3_2_branch1a_relu -> stage3_2_branch1a (in-place)
I1216 19:12:23.478541 28860 net.cpp:150] Setting up stage3_2_branch1a_relu
I1216 19:12:23.478555 28860 net.cpp:157] Top shape: 30 16 32 32 (491520)
I1216 19:12:23.478559 28860 net.cpp:165] Memory required for data: 5035131648
I1216 19:12:23.478565 28860 layer_factory.hpp:77] Creating layer stage3_2_branch1b
I1216 19:12:23.478579 28860 net.cpp:100] Creating Layer stage3_2_branch1b
I1216 19:12:23.478586 28860 net.cpp:434] stage3_2_branch1b <- stage3_2_branch1a
I1216 19:12:23.478595 28860 net.cpp:408] stage3_2_branch1b -> stage3_2_branch1b
I1216 19:12:23.483144 28860 net.cpp:150] Setting up stage3_2_branch1b
I1216 19:12:23.483165 28860 net.cpp:157] Top shape: 30 8 32 32 (245760)
I1216 19:12:23.483170 28860 net.cpp:165] Memory required for data: 5036114688
I1216 19:12:23.483176 28860 layer_factory.hpp:77] Creating layer stage3_2_branch1b_bn
I1216 19:12:23.483184 28860 net.cpp:100] Creating Layer stage3_2_branch1b_bn
I1216 19:12:23.483189 28860 net.cpp:434] stage3_2_branch1b_bn <- stage3_2_branch1b
I1216 19:12:23.483198 28860 net.cpp:395] stage3_2_branch1b_bn -> stage3_2_branch1b (in-place)
I1216 19:12:23.483510 28860 net.cpp:150] Setting up stage3_2_branch1b_bn
I1216 19:12:23.483520 28860 net.cpp:157] Top shape: 30 8 32 32 (245760)
I1216 19:12:23.483523 28860 net.cpp:165] Memory required for data: 5037097728
I1216 19:12:23.483532 28860 layer_factory.hpp:77] Creating layer stage3_2_branch1b_scale
I1216 19:12:23.483538 28860 net.cpp:100] Creating Layer stage3_2_branch1b_scale
I1216 19:12:23.483542 28860 net.cpp:434] stage3_2_branch1b_scale <- stage3_2_branch1b
I1216 19:12:23.483551 28860 net.cpp:395] stage3_2_branch1b_scale -> stage3_2_branch1b (in-place)
I1216 19:12:23.483608 28860 layer_factory.hpp:77] Creating layer stage3_2_branch1b_scale
I1216 19:12:23.483773 28860 net.cpp:150] Setting up stage3_2_branch1b_scale
I1216 19:12:23.483783 28860 net.cpp:157] Top shape: 30 8 32 32 (245760)
I1216 19:12:23.483786 28860 net.cpp:165] Memory required for data: 5038080768
I1216 19:12:23.483795 28860 layer_factory.hpp:77] Creating layer stage3_2_branch1b_relu
I1216 19:12:23.483827 28860 net.cpp:100] Creating Layer stage3_2_branch1b_relu
I1216 19:12:23.483834 28860 net.cpp:434] stage3_2_branch1b_relu <- stage3_2_branch1b
I1216 19:12:23.483839 28860 net.cpp:395] stage3_2_branch1b_relu -> stage3_2_branch1b (in-place)
I1216 19:12:23.484539 28860 net.cpp:150] Setting up stage3_2_branch1b_relu
I1216 19:12:23.484549 28860 net.cpp:157] Top shape: 30 8 32 32 (245760)
I1216 19:12:23.484566 28860 net.cpp:165] Memory required for data: 5039063808
I1216 19:12:23.484570 28860 layer_factory.hpp:77] Creating layer stage3_2_branch2a
I1216 19:12:23.484581 28860 net.cpp:100] Creating Layer stage3_2_branch2a
I1216 19:12:23.484586 28860 net.cpp:434] stage3_2_branch2a <- stage3_1_concat_stage3_1_concat_0_split_1
I1216 19:12:23.484594 28860 net.cpp:408] stage3_2_branch2a -> stage3_2_branch2a
I1216 19:12:23.488279 28860 net.cpp:150] Setting up stage3_2_branch2a
I1216 19:12:23.488294 28860 net.cpp:157] Top shape: 30 16 32 32 (491520)
I1216 19:12:23.488313 28860 net.cpp:165] Memory required for data: 5041029888
I1216 19:12:23.488929 28860 layer_factory.hpp:77] Creating layer stage3_2_branch2a_bn
I1216 19:12:23.488958 28860 net.cpp:100] Creating Layer stage3_2_branch2a_bn
I1216 19:12:23.488965 28860 net.cpp:434] stage3_2_branch2a_bn <- stage3_2_branch2a
I1216 19:12:23.488976 28860 net.cpp:395] stage3_2_branch2a_bn -> stage3_2_branch2a (in-place)
I1216 19:12:23.489257 28860 net.cpp:150] Setting up stage3_2_branch2a_bn
I1216 19:12:23.489266 28860 net.cpp:157] Top shape: 30 16 32 32 (491520)
I1216 19:12:23.489270 28860 net.cpp:165] Memory required for data: 5042995968
I1216 19:12:23.489280 28860 layer_factory.hpp:77] Creating layer stage3_2_branch2a_scale
I1216 19:12:23.489301 28860 net.cpp:100] Creating Layer stage3_2_branch2a_scale
I1216 19:12:23.489305 28860 net.cpp:434] stage3_2_branch2a_scale <- stage3_2_branch2a
I1216 19:12:23.489311 28860 net.cpp:395] stage3_2_branch2a_scale -> stage3_2_branch2a (in-place)
I1216 19:12:23.489368 28860 layer_factory.hpp:77] Creating layer stage3_2_branch2a_scale
I1216 19:12:23.489516 28860 net.cpp:150] Setting up stage3_2_branch2a_scale
I1216 19:12:23.489524 28860 net.cpp:157] Top shape: 30 16 32 32 (491520)
I1216 19:12:23.489528 28860 net.cpp:165] Memory required for data: 5044962048
I1216 19:12:23.489533 28860 layer_factory.hpp:77] Creating layer stage3_2_branch2a_relu
I1216 19:12:23.489539 28860 net.cpp:100] Creating Layer stage3_2_branch2a_relu
I1216 19:12:23.489543 28860 net.cpp:434] stage3_2_branch2a_relu <- stage3_2_branch2a
I1216 19:12:23.489550 28860 net.cpp:395] stage3_2_branch2a_relu -> stage3_2_branch2a (in-place)
I1216 19:12:23.491047 28860 net.cpp:150] Setting up stage3_2_branch2a_relu
I1216 19:12:23.491061 28860 net.cpp:157] Top shape: 30 16 32 32 (491520)
I1216 19:12:23.491080 28860 net.cpp:165] Memory required for data: 5046928128
I1216 19:12:23.491084 28860 layer_factory.hpp:77] Creating layer stage3_2_branch2b
I1216 19:12:23.491096 28860 net.cpp:100] Creating Layer stage3_2_branch2b
I1216 19:12:23.491101 28860 net.cpp:434] stage3_2_branch2b <- stage3_2_branch2a
I1216 19:12:23.491111 28860 net.cpp:408] stage3_2_branch2b -> stage3_2_branch2b
I1216 19:12:23.494118 28860 net.cpp:150] Setting up stage3_2_branch2b
I1216 19:12:23.494132 28860 net.cpp:157] Top shape: 30 8 32 32 (245760)
I1216 19:12:23.494151 28860 net.cpp:165] Memory required for data: 5047911168
I1216 19:12:23.494158 28860 layer_factory.hpp:77] Creating layer stage3_2_branch2b_bn
I1216 19:12:23.494168 28860 net.cpp:100] Creating Layer stage3_2_branch2b_bn
I1216 19:12:23.494171 28860 net.cpp:434] stage3_2_branch2b_bn <- stage3_2_branch2b
I1216 19:12:23.494177 28860 net.cpp:395] stage3_2_branch2b_bn -> stage3_2_branch2b (in-place)
I1216 19:12:23.494426 28860 net.cpp:150] Setting up stage3_2_branch2b_bn
I1216 19:12:23.494434 28860 net.cpp:157] Top shape: 30 8 32 32 (245760)
I1216 19:12:23.494437 28860 net.cpp:165] Memory required for data: 5048894208
I1216 19:12:23.494444 28860 layer_factory.hpp:77] Creating layer stage3_2_branch2b_scale
I1216 19:12:23.494451 28860 net.cpp:100] Creating Layer stage3_2_branch2b_scale
I1216 19:12:23.494454 28860 net.cpp:434] stage3_2_branch2b_scale <- stage3_2_branch2b
I1216 19:12:23.494458 28860 net.cpp:395] stage3_2_branch2b_scale -> stage3_2_branch2b (in-place)
I1216 19:12:23.494508 28860 layer_factory.hpp:77] Creating layer stage3_2_branch2b_scale
I1216 19:12:23.494647 28860 net.cpp:150] Setting up stage3_2_branch2b_scale
I1216 19:12:23.494658 28860 net.cpp:157] Top shape: 30 8 32 32 (245760)
I1216 19:12:23.494662 28860 net.cpp:165] Memory required for data: 5049877248
I1216 19:12:23.494666 28860 layer_factory.hpp:77] Creating layer stage3_2_branch2b_relu
I1216 19:12:23.494673 28860 net.cpp:100] Creating Layer stage3_2_branch2b_relu
I1216 19:12:23.494676 28860 net.cpp:434] stage3_2_branch2b_relu <- stage3_2_branch2b
I1216 19:12:23.494680 28860 net.cpp:395] stage3_2_branch2b_relu -> stage3_2_branch2b (in-place)
I1216 19:12:23.496095 28860 net.cpp:150] Setting up stage3_2_branch2b_relu
I1216 19:12:23.496109 28860 net.cpp:157] Top shape: 30 8 32 32 (245760)
I1216 19:12:23.496129 28860 net.cpp:165] Memory required for data: 5050860288
I1216 19:12:23.496132 28860 layer_factory.hpp:77] Creating layer stage3_2_branch2c
I1216 19:12:23.496146 28860 net.cpp:100] Creating Layer stage3_2_branch2c
I1216 19:12:23.496150 28860 net.cpp:434] stage3_2_branch2c <- stage3_2_branch2b
I1216 19:12:23.496158 28860 net.cpp:408] stage3_2_branch2c -> stage3_2_branch2c
I1216 19:12:23.499125 28860 net.cpp:150] Setting up stage3_2_branch2c
I1216 19:12:23.499140 28860 net.cpp:157] Top shape: 30 8 32 32 (245760)
I1216 19:12:23.499158 28860 net.cpp:165] Memory required for data: 5051843328
I1216 19:12:23.499164 28860 layer_factory.hpp:77] Creating layer stage3_2_branch2c_bn
I1216 19:12:23.499186 28860 net.cpp:100] Creating Layer stage3_2_branch2c_bn
I1216 19:12:23.499191 28860 net.cpp:434] stage3_2_branch2c_bn <- stage3_2_branch2c
I1216 19:12:23.499197 28860 net.cpp:395] stage3_2_branch2c_bn -> stage3_2_branch2c (in-place)
I1216 19:12:23.499456 28860 net.cpp:150] Setting up stage3_2_branch2c_bn
I1216 19:12:23.499465 28860 net.cpp:157] Top shape: 30 8 32 32 (245760)
I1216 19:12:23.499469 28860 net.cpp:165] Memory required for data: 5052826368
I1216 19:12:23.499475 28860 layer_factory.hpp:77] Creating layer stage3_2_branch2c_scale
I1216 19:12:23.499481 28860 net.cpp:100] Creating Layer stage3_2_branch2c_scale
I1216 19:12:23.499485 28860 net.cpp:434] stage3_2_branch2c_scale <- stage3_2_branch2c
I1216 19:12:23.499491 28860 net.cpp:395] stage3_2_branch2c_scale -> stage3_2_branch2c (in-place)
I1216 19:12:23.499541 28860 layer_factory.hpp:77] Creating layer stage3_2_branch2c_scale
I1216 19:12:23.499680 28860 net.cpp:150] Setting up stage3_2_branch2c_scale
I1216 19:12:23.499688 28860 net.cpp:157] Top shape: 30 8 32 32 (245760)
I1216 19:12:23.499691 28860 net.cpp:165] Memory required for data: 5053809408
I1216 19:12:23.499697 28860 layer_factory.hpp:77] Creating layer stage3_2_branch2c_relu
I1216 19:12:23.499703 28860 net.cpp:100] Creating Layer stage3_2_branch2c_relu
I1216 19:12:23.499706 28860 net.cpp:434] stage3_2_branch2c_relu <- stage3_2_branch2c
I1216 19:12:23.499711 28860 net.cpp:395] stage3_2_branch2c_relu -> stage3_2_branch2c (in-place)
I1216 19:12:23.500370 28860 net.cpp:150] Setting up stage3_2_branch2c_relu
I1216 19:12:23.500380 28860 net.cpp:157] Top shape: 30 8 32 32 (245760)
I1216 19:12:23.500398 28860 net.cpp:165] Memory required for data: 5054792448
I1216 19:12:23.500403 28860 layer_factory.hpp:77] Creating layer stage3_2_concat
I1216 19:12:23.500408 28860 net.cpp:100] Creating Layer stage3_2_concat
I1216 19:12:23.500413 28860 net.cpp:434] stage3_2_concat <- stage3_1_concat_stage3_1_concat_0_split_2
I1216 19:12:23.500418 28860 net.cpp:434] stage3_2_concat <- stage3_2_branch1b
I1216 19:12:23.500422 28860 net.cpp:434] stage3_2_concat <- stage3_2_branch2c
I1216 19:12:23.500429 28860 net.cpp:408] stage3_2_concat -> stage3_2_concat
I1216 19:12:23.500468 28860 net.cpp:150] Setting up stage3_2_concat
I1216 19:12:23.500475 28860 net.cpp:157] Top shape: 30 112 32 32 (3440640)
I1216 19:12:23.500478 28860 net.cpp:165] Memory required for data: 5068555008
I1216 19:12:23.500481 28860 layer_factory.hpp:77] Creating layer stage3_2_concat_stage3_2_concat_0_split
I1216 19:12:23.500488 28860 net.cpp:100] Creating Layer stage3_2_concat_stage3_2_concat_0_split
I1216 19:12:23.500490 28860 net.cpp:434] stage3_2_concat_stage3_2_concat_0_split <- stage3_2_concat
I1216 19:12:23.500497 28860 net.cpp:408] stage3_2_concat_stage3_2_concat_0_split -> stage3_2_concat_stage3_2_concat_0_split_0
I1216 19:12:23.500504 28860 net.cpp:408] stage3_2_concat_stage3_2_concat_0_split -> stage3_2_concat_stage3_2_concat_0_split_1
I1216 19:12:23.500510 28860 net.cpp:408] stage3_2_concat_stage3_2_concat_0_split -> stage3_2_concat_stage3_2_concat_0_split_2
I1216 19:12:23.500573 28860 net.cpp:150] Setting up stage3_2_concat_stage3_2_concat_0_split
I1216 19:12:23.500581 28860 net.cpp:157] Top shape: 30 112 32 32 (3440640)
I1216 19:12:23.500584 28860 net.cpp:157] Top shape: 30 112 32 32 (3440640)
I1216 19:12:23.500588 28860 net.cpp:157] Top shape: 30 112 32 32 (3440640)
I1216 19:12:23.500591 28860 net.cpp:165] Memory required for data: 5109842688
I1216 19:12:23.500594 28860 layer_factory.hpp:77] Creating layer stage3_3_branch1a
I1216 19:12:23.500604 28860 net.cpp:100] Creating Layer stage3_3_branch1a
I1216 19:12:23.500609 28860 net.cpp:434] stage3_3_branch1a <- stage3_2_concat_stage3_2_concat_0_split_0
I1216 19:12:23.500617 28860 net.cpp:408] stage3_3_branch1a -> stage3_3_branch1a
I1216 19:12:23.505661 28860 net.cpp:150] Setting up stage3_3_branch1a
I1216 19:12:23.505676 28860 net.cpp:157] Top shape: 30 16 32 32 (491520)
I1216 19:12:23.505694 28860 net.cpp:165] Memory required for data: 5111808768
I1216 19:12:23.505715 28860 layer_factory.hpp:77] Creating layer stage3_3_branch1a_bn
I1216 19:12:23.505723 28860 net.cpp:100] Creating Layer stage3_3_branch1a_bn
I1216 19:12:23.505728 28860 net.cpp:434] stage3_3_branch1a_bn <- stage3_3_branch1a
I1216 19:12:23.505735 28860 net.cpp:395] stage3_3_branch1a_bn -> stage3_3_branch1a (in-place)
I1216 19:12:23.505992 28860 net.cpp:150] Setting up stage3_3_branch1a_bn
I1216 19:12:23.506001 28860 net.cpp:157] Top shape: 30 16 32 32 (491520)
I1216 19:12:23.506005 28860 net.cpp:165] Memory required for data: 5113774848
I1216 19:12:23.506011 28860 layer_factory.hpp:77] Creating layer stage3_3_branch1a_scale
I1216 19:12:23.506017 28860 net.cpp:100] Creating Layer stage3_3_branch1a_scale
I1216 19:12:23.506021 28860 net.cpp:434] stage3_3_branch1a_scale <- stage3_3_branch1a
I1216 19:12:23.506028 28860 net.cpp:395] stage3_3_branch1a_scale -> stage3_3_branch1a (in-place)
I1216 19:12:23.506075 28860 layer_factory.hpp:77] Creating layer stage3_3_branch1a_scale
I1216 19:12:23.506217 28860 net.cpp:150] Setting up stage3_3_branch1a_scale
I1216 19:12:23.506225 28860 net.cpp:157] Top shape: 30 16 32 32 (491520)
I1216 19:12:23.506228 28860 net.cpp:165] Memory required for data: 5115740928
I1216 19:12:23.506234 28860 layer_factory.hpp:77] Creating layer stage3_3_branch1a_relu
I1216 19:12:23.506239 28860 net.cpp:100] Creating Layer stage3_3_branch1a_relu
I1216 19:12:23.506243 28860 net.cpp:434] stage3_3_branch1a_relu <- stage3_3_branch1a
I1216 19:12:23.506249 28860 net.cpp:395] stage3_3_branch1a_relu -> stage3_3_branch1a (in-place)
I1216 19:12:23.506929 28860 net.cpp:150] Setting up stage3_3_branch1a_relu
I1216 19:12:23.506940 28860 net.cpp:157] Top shape: 30 16 32 32 (491520)
I1216 19:12:23.506944 28860 net.cpp:165] Memory required for data: 5117707008
I1216 19:12:23.506949 28860 layer_factory.hpp:77] Creating layer stage3_3_branch1b
I1216 19:12:23.506960 28860 net.cpp:100] Creating Layer stage3_3_branch1b
I1216 19:12:23.506964 28860 net.cpp:434] stage3_3_branch1b <- stage3_3_branch1a
I1216 19:12:23.506973 28860 net.cpp:408] stage3_3_branch1b -> stage3_3_branch1b
I1216 19:12:23.510581 28860 net.cpp:150] Setting up stage3_3_branch1b
I1216 19:12:23.510596 28860 net.cpp:157] Top shape: 30 8 32 32 (245760)
I1216 19:12:23.510615 28860 net.cpp:165] Memory required for data: 5118690048
I1216 19:12:23.510622 28860 layer_factory.hpp:77] Creating layer stage3_3_branch1b_bn
I1216 19:12:23.510630 28860 net.cpp:100] Creating Layer stage3_3_branch1b_bn
I1216 19:12:23.510635 28860 net.cpp:434] stage3_3_branch1b_bn <- stage3_3_branch1b
I1216 19:12:23.510640 28860 net.cpp:395] stage3_3_branch1b_bn -> stage3_3_branch1b (in-place)
I1216 19:12:23.510921 28860 net.cpp:150] Setting up stage3_3_branch1b_bn
I1216 19:12:23.510943 28860 net.cpp:157] Top shape: 30 8 32 32 (245760)
I1216 19:12:23.510947 28860 net.cpp:165] Memory required for data: 5119673088
I1216 19:12:23.510969 28860 layer_factory.hpp:77] Creating layer stage3_3_branch1b_scale
I1216 19:12:23.510974 28860 net.cpp:100] Creating Layer stage3_3_branch1b_scale
I1216 19:12:23.510978 28860 net.cpp:434] stage3_3_branch1b_scale <- stage3_3_branch1b
I1216 19:12:23.510984 28860 net.cpp:395] stage3_3_branch1b_scale -> stage3_3_branch1b (in-place)
I1216 19:12:23.511037 28860 layer_factory.hpp:77] Creating layer stage3_3_branch1b_scale
I1216 19:12:23.511179 28860 net.cpp:150] Setting up stage3_3_branch1b_scale
I1216 19:12:23.511188 28860 net.cpp:157] Top shape: 30 8 32 32 (245760)
I1216 19:12:23.511190 28860 net.cpp:165] Memory required for data: 5120656128
I1216 19:12:23.511196 28860 layer_factory.hpp:77] Creating layer stage3_3_branch1b_relu
I1216 19:12:23.511204 28860 net.cpp:100] Creating Layer stage3_3_branch1b_relu
I1216 19:12:23.511209 28860 net.cpp:434] stage3_3_branch1b_relu <- stage3_3_branch1b
I1216 19:12:23.511214 28860 net.cpp:395] stage3_3_branch1b_relu -> stage3_3_branch1b (in-place)
I1216 19:12:23.512624 28860 net.cpp:150] Setting up stage3_3_branch1b_relu
I1216 19:12:23.512637 28860 net.cpp:157] Top shape: 30 8 32 32 (245760)
I1216 19:12:23.512655 28860 net.cpp:165] Memory required for data: 5121639168
I1216 19:12:23.512672 28860 layer_factory.hpp:77] Creating layer stage3_3_branch2a
I1216 19:12:23.512684 28860 net.cpp:100] Creating Layer stage3_3_branch2a
I1216 19:12:23.512688 28860 net.cpp:434] stage3_3_branch2a <- stage3_2_concat_stage3_2_concat_0_split_1
I1216 19:12:23.512697 28860 net.cpp:408] stage3_3_branch2a -> stage3_3_branch2a
I1216 19:12:23.515641 28860 net.cpp:150] Setting up stage3_3_branch2a
I1216 19:12:23.515655 28860 net.cpp:157] Top shape: 30 16 32 32 (491520)
I1216 19:12:23.515674 28860 net.cpp:165] Memory required for data: 5123605248
I1216 19:12:23.515679 28860 layer_factory.hpp:77] Creating layer stage3_3_branch2a_bn
I1216 19:12:23.515689 28860 net.cpp:100] Creating Layer stage3_3_branch2a_bn
I1216 19:12:23.515697 28860 net.cpp:434] stage3_3_branch2a_bn <- stage3_3_branch2a
I1216 19:12:23.515702 28860 net.cpp:395] stage3_3_branch2a_bn -> stage3_3_branch2a (in-place)
I1216 19:12:23.515962 28860 net.cpp:150] Setting up stage3_3_branch2a_bn
I1216 19:12:23.515971 28860 net.cpp:157] Top shape: 30 16 32 32 (491520)
I1216 19:12:23.515974 28860 net.cpp:165] Memory required for data: 5125571328
I1216 19:12:23.515981 28860 layer_factory.hpp:77] Creating layer stage3_3_branch2a_scale
I1216 19:12:23.515988 28860 net.cpp:100] Creating Layer stage3_3_branch2a_scale
I1216 19:12:23.515992 28860 net.cpp:434] stage3_3_branch2a_scale <- stage3_3_branch2a
I1216 19:12:23.515996 28860 net.cpp:395] stage3_3_branch2a_scale -> stage3_3_branch2a (in-place)
I1216 19:12:23.516047 28860 layer_factory.hpp:77] Creating layer stage3_3_branch2a_scale
I1216 19:12:23.516191 28860 net.cpp:150] Setting up stage3_3_branch2a_scale
I1216 19:12:23.516198 28860 net.cpp:157] Top shape: 30 16 32 32 (491520)
I1216 19:12:23.516202 28860 net.cpp:165] Memory required for data: 5127537408
I1216 19:12:23.516207 28860 layer_factory.hpp:77] Creating layer stage3_3_branch2a_relu
I1216 19:12:23.516216 28860 net.cpp:100] Creating Layer stage3_3_branch2a_relu
I1216 19:12:23.516221 28860 net.cpp:434] stage3_3_branch2a_relu <- stage3_3_branch2a
I1216 19:12:23.516225 28860 net.cpp:395] stage3_3_branch2a_relu -> stage3_3_branch2a (in-place)
I1216 19:12:23.516885 28860 net.cpp:150] Setting up stage3_3_branch2a_relu
I1216 19:12:23.516894 28860 net.cpp:157] Top shape: 30 16 32 32 (491520)
I1216 19:12:23.516916 28860 net.cpp:165] Memory required for data: 5129503488
I1216 19:12:23.516919 28860 layer_factory.hpp:77] Creating layer stage3_3_branch2b
I1216 19:12:23.516929 28860 net.cpp:100] Creating Layer stage3_3_branch2b
I1216 19:12:23.516933 28860 net.cpp:434] stage3_3_branch2b <- stage3_3_branch2a
I1216 19:12:23.516940 28860 net.cpp:408] stage3_3_branch2b -> stage3_3_branch2b
I1216 19:12:23.520658 28860 net.cpp:150] Setting up stage3_3_branch2b
I1216 19:12:23.520673 28860 net.cpp:157] Top shape: 30 8 32 32 (245760)
I1216 19:12:23.520691 28860 net.cpp:165] Memory required for data: 5130486528
I1216 19:12:23.520697 28860 layer_factory.hpp:77] Creating layer stage3_3_branch2b_bn
I1216 19:12:23.520705 28860 net.cpp:100] Creating Layer stage3_3_branch2b_bn
I1216 19:12:23.520710 28860 net.cpp:434] stage3_3_branch2b_bn <- stage3_3_branch2b
I1216 19:12:23.520715 28860 net.cpp:395] stage3_3_branch2b_bn -> stage3_3_branch2b (in-place)
I1216 19:12:23.520977 28860 net.cpp:150] Setting up stage3_3_branch2b_bn
I1216 19:12:23.520984 28860 net.cpp:157] Top shape: 30 8 32 32 (245760)
I1216 19:12:23.520987 28860 net.cpp:165] Memory required for data: 5131469568
I1216 19:12:23.520997 28860 layer_factory.hpp:77] Creating layer stage3_3_branch2b_scale
I1216 19:12:23.521003 28860 net.cpp:100] Creating Layer stage3_3_branch2b_scale
I1216 19:12:23.521005 28860 net.cpp:434] stage3_3_branch2b_scale <- stage3_3_branch2b
I1216 19:12:23.521013 28860 net.cpp:395] stage3_3_branch2b_scale -> stage3_3_branch2b (in-place)
I1216 19:12:23.521064 28860 layer_factory.hpp:77] Creating layer stage3_3_branch2b_scale
I1216 19:12:23.521209 28860 net.cpp:150] Setting up stage3_3_branch2b_scale
I1216 19:12:23.521219 28860 net.cpp:157] Top shape: 30 8 32 32 (245760)
I1216 19:12:23.521234 28860 net.cpp:165] Memory required for data: 5132452608
I1216 19:12:23.521239 28860 layer_factory.hpp:77] Creating layer stage3_3_branch2b_relu
I1216 19:12:23.521246 28860 net.cpp:100] Creating Layer stage3_3_branch2b_relu
I1216 19:12:23.521250 28860 net.cpp:434] stage3_3_branch2b_relu <- stage3_3_branch2b
I1216 19:12:23.521255 28860 net.cpp:395] stage3_3_branch2b_relu -> stage3_3_branch2b (in-place)
I1216 19:12:23.521940 28860 net.cpp:150] Setting up stage3_3_branch2b_relu
I1216 19:12:23.521970 28860 net.cpp:157] Top shape: 30 8 32 32 (245760)
I1216 19:12:23.521973 28860 net.cpp:165] Memory required for data: 5133435648
I1216 19:12:23.521976 28860 layer_factory.hpp:77] Creating layer stage3_3_branch2c
I1216 19:12:23.521987 28860 net.cpp:100] Creating Layer stage3_3_branch2c
I1216 19:12:23.521992 28860 net.cpp:434] stage3_3_branch2c <- stage3_3_branch2b
I1216 19:12:23.521998 28860 net.cpp:408] stage3_3_branch2c -> stage3_3_branch2c
I1216 19:12:23.525038 28860 net.cpp:150] Setting up stage3_3_branch2c
I1216 19:12:23.525051 28860 net.cpp:157] Top shape: 30 8 32 32 (245760)
I1216 19:12:23.525071 28860 net.cpp:165] Memory required for data: 5134418688
I1216 19:12:23.525076 28860 layer_factory.hpp:77] Creating layer stage3_3_branch2c_bn
I1216 19:12:23.525084 28860 net.cpp:100] Creating Layer stage3_3_branch2c_bn
I1216 19:12:23.525089 28860 net.cpp:434] stage3_3_branch2c_bn <- stage3_3_branch2c
I1216 19:12:23.525097 28860 net.cpp:395] stage3_3_branch2c_bn -> stage3_3_branch2c (in-place)
I1216 19:12:23.525364 28860 net.cpp:150] Setting up stage3_3_branch2c_bn
I1216 19:12:23.525373 28860 net.cpp:157] Top shape: 30 8 32 32 (245760)
I1216 19:12:23.525375 28860 net.cpp:165] Memory required for data: 5135401728
I1216 19:12:23.525384 28860 layer_factory.hpp:77] Creating layer stage3_3_branch2c_scale
I1216 19:12:23.525390 28860 net.cpp:100] Creating Layer stage3_3_branch2c_scale
I1216 19:12:23.525394 28860 net.cpp:434] stage3_3_branch2c_scale <- stage3_3_branch2c
I1216 19:12:23.525398 28860 net.cpp:395] stage3_3_branch2c_scale -> stage3_3_branch2c (in-place)
I1216 19:12:23.525450 28860 layer_factory.hpp:77] Creating layer stage3_3_branch2c_scale
I1216 19:12:23.525594 28860 net.cpp:150] Setting up stage3_3_branch2c_scale
I1216 19:12:23.525602 28860 net.cpp:157] Top shape: 30 8 32 32 (245760)
I1216 19:12:23.525605 28860 net.cpp:165] Memory required for data: 5136384768
I1216 19:12:23.525611 28860 layer_factory.hpp:77] Creating layer stage3_3_branch2c_relu
I1216 19:12:23.525619 28860 net.cpp:100] Creating Layer stage3_3_branch2c_relu
I1216 19:12:23.525622 28860 net.cpp:434] stage3_3_branch2c_relu <- stage3_3_branch2c
I1216 19:12:23.525626 28860 net.cpp:395] stage3_3_branch2c_relu -> stage3_3_branch2c (in-place)
I1216 19:12:23.527072 28860 net.cpp:150] Setting up stage3_3_branch2c_relu
I1216 19:12:23.527086 28860 net.cpp:157] Top shape: 30 8 32 32 (245760)
I1216 19:12:23.527104 28860 net.cpp:165] Memory required for data: 5137367808
I1216 19:12:23.527108 28860 layer_factory.hpp:77] Creating layer stage3_3_concat
I1216 19:12:23.527117 28860 net.cpp:100] Creating Layer stage3_3_concat
I1216 19:12:23.527122 28860 net.cpp:434] stage3_3_concat <- stage3_2_concat_stage3_2_concat_0_split_2
I1216 19:12:23.527127 28860 net.cpp:434] stage3_3_concat <- stage3_3_branch1b
I1216 19:12:23.527132 28860 net.cpp:434] stage3_3_concat <- stage3_3_branch2c
I1216 19:12:23.527139 28860 net.cpp:408] stage3_3_concat -> stage3_3_concat
I1216 19:12:23.527178 28860 net.cpp:150] Setting up stage3_3_concat
I1216 19:12:23.527184 28860 net.cpp:157] Top shape: 30 128 32 32 (3932160)
I1216 19:12:23.527187 28860 net.cpp:165] Memory required for data: 5153096448
I1216 19:12:23.527194 28860 layer_factory.hpp:77] Creating layer stage3_tb
I1216 19:12:23.527204 28860 net.cpp:100] Creating Layer stage3_tb
I1216 19:12:23.527207 28860 net.cpp:434] stage3_tb <- stage3_3_concat
I1216 19:12:23.527215 28860 net.cpp:408] stage3_tb -> stage3_tb
I1216 19:12:23.531836 28860 net.cpp:150] Setting up stage3_tb
I1216 19:12:23.531867 28860 net.cpp:157] Top shape: 30 128 32 32 (3932160)
I1216 19:12:23.531883 28860 net.cpp:165] Memory required for data: 5168825088
I1216 19:12:23.531889 28860 layer_factory.hpp:77] Creating layer stage3_tb_bn
I1216 19:12:23.531896 28860 net.cpp:100] Creating Layer stage3_tb_bn
I1216 19:12:23.531900 28860 net.cpp:434] stage3_tb_bn <- stage3_tb
I1216 19:12:23.531908 28860 net.cpp:395] stage3_tb_bn -> stage3_tb (in-place)
I1216 19:12:23.532164 28860 net.cpp:150] Setting up stage3_tb_bn
I1216 19:12:23.532173 28860 net.cpp:157] Top shape: 30 128 32 32 (3932160)
I1216 19:12:23.532176 28860 net.cpp:165] Memory required for data: 5184553728
I1216 19:12:23.532183 28860 layer_factory.hpp:77] Creating layer stage3_tb_scale
I1216 19:12:23.532188 28860 net.cpp:100] Creating Layer stage3_tb_scale
I1216 19:12:23.532192 28860 net.cpp:434] stage3_tb_scale <- stage3_tb
I1216 19:12:23.532197 28860 net.cpp:395] stage3_tb_scale -> stage3_tb (in-place)
I1216 19:12:23.532245 28860 layer_factory.hpp:77] Creating layer stage3_tb_scale
I1216 19:12:23.532380 28860 net.cpp:150] Setting up stage3_tb_scale
I1216 19:12:23.532388 28860 net.cpp:157] Top shape: 30 128 32 32 (3932160)
I1216 19:12:23.532392 28860 net.cpp:165] Memory required for data: 5200282368
I1216 19:12:23.532398 28860 layer_factory.hpp:77] Creating layer stage3_tb_relu
I1216 19:12:23.532407 28860 net.cpp:100] Creating Layer stage3_tb_relu
I1216 19:12:23.532410 28860 net.cpp:434] stage3_tb_relu <- stage3_tb
I1216 19:12:23.532414 28860 net.cpp:395] stage3_tb_relu -> stage3_tb (in-place)
I1216 19:12:23.533066 28860 net.cpp:150] Setting up stage3_tb_relu
I1216 19:12:23.533077 28860 net.cpp:157] Top shape: 30 128 32 32 (3932160)
I1216 19:12:23.533097 28860 net.cpp:165] Memory required for data: 5216011008
I1216 19:12:23.533100 28860 layer_factory.hpp:77] Creating layer stage3_tb_pool
I1216 19:12:23.533105 28860 net.cpp:100] Creating Layer stage3_tb_pool
I1216 19:12:23.533109 28860 net.cpp:434] stage3_tb_pool <- stage3_tb
I1216 19:12:23.533118 28860 net.cpp:408] stage3_tb_pool -> stage3_tb_pool
I1216 19:12:23.534605 28860 net.cpp:150] Setting up stage3_tb_pool
I1216 19:12:23.534616 28860 net.cpp:157] Top shape: 30 128 16 16 (983040)
I1216 19:12:23.534636 28860 net.cpp:165] Memory required for data: 5219943168
I1216 19:12:23.534639 28860 layer_factory.hpp:77] Creating layer stage3_tb_pool_stage3_tb_pool_0_split
I1216 19:12:23.534648 28860 net.cpp:100] Creating Layer stage3_tb_pool_stage3_tb_pool_0_split
I1216 19:12:23.534653 28860 net.cpp:434] stage3_tb_pool_stage3_tb_pool_0_split <- stage3_tb_pool
I1216 19:12:23.534659 28860 net.cpp:408] stage3_tb_pool_stage3_tb_pool_0_split -> stage3_tb_pool_stage3_tb_pool_0_split_0
I1216 19:12:23.534667 28860 net.cpp:408] stage3_tb_pool_stage3_tb_pool_0_split -> stage3_tb_pool_stage3_tb_pool_0_split_1
I1216 19:12:23.534677 28860 net.cpp:408] stage3_tb_pool_stage3_tb_pool_0_split -> stage3_tb_pool_stage3_tb_pool_0_split_2
I1216 19:12:23.534682 28860 net.cpp:408] stage3_tb_pool_stage3_tb_pool_0_split -> stage3_tb_pool_stage3_tb_pool_0_split_3
I1216 19:12:23.534687 28860 net.cpp:408] stage3_tb_pool_stage3_tb_pool_0_split -> stage3_tb_pool_stage3_tb_pool_0_split_4
I1216 19:12:23.534693 28860 net.cpp:408] stage3_tb_pool_stage3_tb_pool_0_split -> stage3_tb_pool_stage3_tb_pool_0_split_5
I1216 19:12:23.534809 28860 net.cpp:150] Setting up stage3_tb_pool_stage3_tb_pool_0_split
I1216 19:12:23.534816 28860 net.cpp:157] Top shape: 30 128 16 16 (983040)
I1216 19:12:23.534821 28860 net.cpp:157] Top shape: 30 128 16 16 (983040)
I1216 19:12:23.534826 28860 net.cpp:157] Top shape: 30 128 16 16 (983040)
I1216 19:12:23.534828 28860 net.cpp:157] Top shape: 30 128 16 16 (983040)
I1216 19:12:23.534832 28860 net.cpp:157] Top shape: 30 128 16 16 (983040)
I1216 19:12:23.534837 28860 net.cpp:157] Top shape: 30 128 16 16 (983040)
I1216 19:12:23.534839 28860 net.cpp:165] Memory required for data: 5243536128
I1216 19:12:23.534844 28860 layer_factory.hpp:77] Creating layer stage4_1_branch1a
I1216 19:12:23.534857 28860 net.cpp:100] Creating Layer stage4_1_branch1a
I1216 19:12:23.534868 28860 net.cpp:434] stage4_1_branch1a <- stage3_tb_pool_stage3_tb_pool_0_split_0
I1216 19:12:23.534888 28860 net.cpp:408] stage4_1_branch1a -> stage4_1_branch1a
I1216 19:12:23.537868 28860 net.cpp:150] Setting up stage4_1_branch1a
I1216 19:12:23.537883 28860 net.cpp:157] Top shape: 30 32 16 16 (245760)
I1216 19:12:23.537901 28860 net.cpp:165] Memory required for data: 5244519168
I1216 19:12:23.537907 28860 layer_factory.hpp:77] Creating layer stage4_1_branch1a_bn
I1216 19:12:23.537916 28860 net.cpp:100] Creating Layer stage4_1_branch1a_bn
I1216 19:12:23.537920 28860 net.cpp:434] stage4_1_branch1a_bn <- stage4_1_branch1a
I1216 19:12:23.537927 28860 net.cpp:395] stage4_1_branch1a_bn -> stage4_1_branch1a (in-place)
I1216 19:12:23.538194 28860 net.cpp:150] Setting up stage4_1_branch1a_bn
I1216 19:12:23.538203 28860 net.cpp:157] Top shape: 30 32 16 16 (245760)
I1216 19:12:23.538205 28860 net.cpp:165] Memory required for data: 5245502208
I1216 19:12:23.538211 28860 layer_factory.hpp:77] Creating layer stage4_1_branch1a_scale
I1216 19:12:23.538218 28860 net.cpp:100] Creating Layer stage4_1_branch1a_scale
I1216 19:12:23.538221 28860 net.cpp:434] stage4_1_branch1a_scale <- stage4_1_branch1a
I1216 19:12:23.538228 28860 net.cpp:395] stage4_1_branch1a_scale -> stage4_1_branch1a (in-place)
I1216 19:12:23.538275 28860 layer_factory.hpp:77] Creating layer stage4_1_branch1a_scale
I1216 19:12:23.538424 28860 net.cpp:150] Setting up stage4_1_branch1a_scale
I1216 19:12:23.538431 28860 net.cpp:157] Top shape: 30 32 16 16 (245760)
I1216 19:12:23.538435 28860 net.cpp:165] Memory required for data: 5246485248
I1216 19:12:23.538440 28860 layer_factory.hpp:77] Creating layer stage4_1_branch1a_relu
I1216 19:12:23.538449 28860 net.cpp:100] Creating Layer stage4_1_branch1a_relu
I1216 19:12:23.538451 28860 net.cpp:434] stage4_1_branch1a_relu <- stage4_1_branch1a
I1216 19:12:23.538457 28860 net.cpp:395] stage4_1_branch1a_relu -> stage4_1_branch1a (in-place)
I1216 19:12:23.539866 28860 net.cpp:150] Setting up stage4_1_branch1a_relu
I1216 19:12:23.539897 28860 net.cpp:157] Top shape: 30 32 16 16 (245760)
I1216 19:12:23.539901 28860 net.cpp:165] Memory required for data: 5247468288
I1216 19:12:23.539904 28860 layer_factory.hpp:77] Creating layer stage4_1_branch1b
I1216 19:12:23.539916 28860 net.cpp:100] Creating Layer stage4_1_branch1b
I1216 19:12:23.539921 28860 net.cpp:434] stage4_1_branch1b <- stage4_1_branch1a
I1216 19:12:23.539928 28860 net.cpp:408] stage4_1_branch1b -> stage4_1_branch1b
I1216 19:12:23.543383 28860 net.cpp:150] Setting up stage4_1_branch1b
I1216 19:12:23.543416 28860 net.cpp:157] Top shape: 30 8 16 16 (61440)
I1216 19:12:23.543421 28860 net.cpp:165] Memory required for data: 5247714048
I1216 19:12:23.543426 28860 layer_factory.hpp:77] Creating layer stage4_1_branch1b_bn
I1216 19:12:23.543432 28860 net.cpp:100] Creating Layer stage4_1_branch1b_bn
I1216 19:12:23.543437 28860 net.cpp:434] stage4_1_branch1b_bn <- stage4_1_branch1b
I1216 19:12:23.543444 28860 net.cpp:395] stage4_1_branch1b_bn -> stage4_1_branch1b (in-place)
I1216 19:12:23.543721 28860 net.cpp:150] Setting up stage4_1_branch1b_bn
I1216 19:12:23.543730 28860 net.cpp:157] Top shape: 30 8 16 16 (61440)
I1216 19:12:23.543733 28860 net.cpp:165] Memory required for data: 5247959808
I1216 19:12:23.543740 28860 layer_factory.hpp:77] Creating layer stage4_1_branch1b_scale
I1216 19:12:23.543746 28860 net.cpp:100] Creating Layer stage4_1_branch1b_scale
I1216 19:12:23.543750 28860 net.cpp:434] stage4_1_branch1b_scale <- stage4_1_branch1b
I1216 19:12:23.543756 28860 net.cpp:395] stage4_1_branch1b_scale -> stage4_1_branch1b (in-place)
I1216 19:12:23.543808 28860 layer_factory.hpp:77] Creating layer stage4_1_branch1b_scale
I1216 19:12:23.543970 28860 net.cpp:150] Setting up stage4_1_branch1b_scale
I1216 19:12:23.543977 28860 net.cpp:157] Top shape: 30 8 16 16 (61440)
I1216 19:12:23.543980 28860 net.cpp:165] Memory required for data: 5248205568
I1216 19:12:23.543988 28860 layer_factory.hpp:77] Creating layer stage4_1_branch1b_relu
I1216 19:12:23.543996 28860 net.cpp:100] Creating Layer stage4_1_branch1b_relu
I1216 19:12:23.544013 28860 net.cpp:434] stage4_1_branch1b_relu <- stage4_1_branch1b
I1216 19:12:23.544018 28860 net.cpp:395] stage4_1_branch1b_relu -> stage4_1_branch1b (in-place)
I1216 19:12:23.544662 28860 net.cpp:150] Setting up stage4_1_branch1b_relu
I1216 19:12:23.544672 28860 net.cpp:157] Top shape: 30 8 16 16 (61440)
I1216 19:12:23.544675 28860 net.cpp:165] Memory required for data: 5248451328
I1216 19:12:23.544694 28860 layer_factory.hpp:77] Creating layer stage4_1_branch2a
I1216 19:12:23.544705 28860 net.cpp:100] Creating Layer stage4_1_branch2a
I1216 19:12:23.544710 28860 net.cpp:434] stage4_1_branch2a <- stage3_tb_pool_stage3_tb_pool_0_split_1
I1216 19:12:23.544718 28860 net.cpp:408] stage4_1_branch2a -> stage4_1_branch2a
I1216 19:12:23.548521 28860 net.cpp:150] Setting up stage4_1_branch2a
I1216 19:12:23.548537 28860 net.cpp:157] Top shape: 30 32 16 16 (245760)
I1216 19:12:23.548555 28860 net.cpp:165] Memory required for data: 5249434368
I1216 19:12:23.548560 28860 layer_factory.hpp:77] Creating layer stage4_1_branch2a_bn
I1216 19:12:23.548568 28860 net.cpp:100] Creating Layer stage4_1_branch2a_bn
I1216 19:12:23.548573 28860 net.cpp:434] stage4_1_branch2a_bn <- stage4_1_branch2a
I1216 19:12:23.548580 28860 net.cpp:395] stage4_1_branch2a_bn -> stage4_1_branch2a (in-place)
I1216 19:12:23.549453 28860 net.cpp:150] Setting up stage4_1_branch2a_bn
I1216 19:12:23.549463 28860 net.cpp:157] Top shape: 30 32 16 16 (245760)
I1216 19:12:23.549482 28860 net.cpp:165] Memory required for data: 5250417408
I1216 19:12:23.549491 28860 layer_factory.hpp:77] Creating layer stage4_1_branch2a_scale
I1216 19:12:23.549500 28860 net.cpp:100] Creating Layer stage4_1_branch2a_scale
I1216 19:12:23.549504 28860 net.cpp:434] stage4_1_branch2a_scale <- stage4_1_branch2a
I1216 19:12:23.549510 28860 net.cpp:395] stage4_1_branch2a_scale -> stage4_1_branch2a (in-place)
I1216 19:12:23.549564 28860 layer_factory.hpp:77] Creating layer stage4_1_branch2a_scale
I1216 19:12:23.549711 28860 net.cpp:150] Setting up stage4_1_branch2a_scale
I1216 19:12:23.549718 28860 net.cpp:157] Top shape: 30 32 16 16 (245760)
I1216 19:12:23.549722 28860 net.cpp:165] Memory required for data: 5251400448
I1216 19:12:23.549728 28860 layer_factory.hpp:77] Creating layer stage4_1_branch2a_relu
I1216 19:12:23.549736 28860 net.cpp:100] Creating Layer stage4_1_branch2a_relu
I1216 19:12:23.549738 28860 net.cpp:434] stage4_1_branch2a_relu <- stage4_1_branch2a
I1216 19:12:23.549744 28860 net.cpp:395] stage4_1_branch2a_relu -> stage4_1_branch2a (in-place)
I1216 19:12:23.550441 28860 net.cpp:150] Setting up stage4_1_branch2a_relu
I1216 19:12:23.550452 28860 net.cpp:157] Top shape: 30 32 16 16 (245760)
I1216 19:12:23.550472 28860 net.cpp:165] Memory required for data: 5252383488
I1216 19:12:23.550475 28860 layer_factory.hpp:77] Creating layer stage4_1_branch2b
I1216 19:12:23.550485 28860 net.cpp:100] Creating Layer stage4_1_branch2b
I1216 19:12:23.550490 28860 net.cpp:434] stage4_1_branch2b <- stage4_1_branch2a
I1216 19:12:23.550498 28860 net.cpp:408] stage4_1_branch2b -> stage4_1_branch2b
I1216 19:12:23.553519 28860 net.cpp:150] Setting up stage4_1_branch2b
I1216 19:12:23.553534 28860 net.cpp:157] Top shape: 30 8 16 16 (61440)
I1216 19:12:23.553552 28860 net.cpp:165] Memory required for data: 5252629248
I1216 19:12:23.553560 28860 layer_factory.hpp:77] Creating layer stage4_1_branch2b_bn
I1216 19:12:23.553570 28860 net.cpp:100] Creating Layer stage4_1_branch2b_bn
I1216 19:12:23.553573 28860 net.cpp:434] stage4_1_branch2b_bn <- stage4_1_branch2b
I1216 19:12:23.553580 28860 net.cpp:395] stage4_1_branch2b_bn -> stage4_1_branch2b (in-place)
I1216 19:12:23.553839 28860 net.cpp:150] Setting up stage4_1_branch2b_bn
I1216 19:12:23.553848 28860 net.cpp:157] Top shape: 30 8 16 16 (61440)
I1216 19:12:23.553851 28860 net.cpp:165] Memory required for data: 5252875008
I1216 19:12:23.553858 28860 layer_factory.hpp:77] Creating layer stage4_1_branch2b_scale
I1216 19:12:23.553864 28860 net.cpp:100] Creating Layer stage4_1_branch2b_scale
I1216 19:12:23.553869 28860 net.cpp:434] stage4_1_branch2b_scale <- stage4_1_branch2b
I1216 19:12:23.553886 28860 net.cpp:395] stage4_1_branch2b_scale -> stage4_1_branch2b (in-place)
I1216 19:12:23.553941 28860 layer_factory.hpp:77] Creating layer stage4_1_branch2b_scale
I1216 19:12:23.554087 28860 net.cpp:150] Setting up stage4_1_branch2b_scale
I1216 19:12:23.554096 28860 net.cpp:157] Top shape: 30 8 16 16 (61440)
I1216 19:12:23.554100 28860 net.cpp:165] Memory required for data: 5253120768
I1216 19:12:23.554105 28860 layer_factory.hpp:77] Creating layer stage4_1_branch2b_relu
I1216 19:12:23.554109 28860 net.cpp:100] Creating Layer stage4_1_branch2b_relu
I1216 19:12:23.554114 28860 net.cpp:434] stage4_1_branch2b_relu <- stage4_1_branch2b
I1216 19:12:23.554121 28860 net.cpp:395] stage4_1_branch2b_relu -> stage4_1_branch2b (in-place)
I1216 19:12:23.555546 28860 net.cpp:150] Setting up stage4_1_branch2b_relu
I1216 19:12:23.555558 28860 net.cpp:157] Top shape: 30 8 16 16 (61440)
I1216 19:12:23.555577 28860 net.cpp:165] Memory required for data: 5253366528
I1216 19:12:23.555583 28860 layer_factory.hpp:77] Creating layer stage4_1_branch2c
I1216 19:12:23.555596 28860 net.cpp:100] Creating Layer stage4_1_branch2c
I1216 19:12:23.555600 28860 net.cpp:434] stage4_1_branch2c <- stage4_1_branch2b
I1216 19:12:23.555608 28860 net.cpp:408] stage4_1_branch2c -> stage4_1_branch2c
I1216 19:12:23.559152 28860 net.cpp:150] Setting up stage4_1_branch2c
I1216 19:12:23.559166 28860 net.cpp:157] Top shape: 30 8 16 16 (61440)
I1216 19:12:23.559185 28860 net.cpp:165] Memory required for data: 5253612288
I1216 19:12:23.559191 28860 layer_factory.hpp:77] Creating layer stage4_1_branch2c_bn
I1216 19:12:23.559201 28860 net.cpp:100] Creating Layer stage4_1_branch2c_bn
I1216 19:12:23.559204 28860 net.cpp:434] stage4_1_branch2c_bn <- stage4_1_branch2c
I1216 19:12:23.559209 28860 net.cpp:395] stage4_1_branch2c_bn -> stage4_1_branch2c (in-place)
I1216 19:12:23.559473 28860 net.cpp:150] Setting up stage4_1_branch2c_bn
I1216 19:12:23.559480 28860 net.cpp:157] Top shape: 30 8 16 16 (61440)
I1216 19:12:23.559484 28860 net.cpp:165] Memory required for data: 5253858048
I1216 19:12:23.559490 28860 layer_factory.hpp:77] Creating layer stage4_1_branch2c_scale
I1216 19:12:23.559499 28860 net.cpp:100] Creating Layer stage4_1_branch2c_scale
I1216 19:12:23.559504 28860 net.cpp:434] stage4_1_branch2c_scale <- stage4_1_branch2c
I1216 19:12:23.559507 28860 net.cpp:395] stage4_1_branch2c_scale -> stage4_1_branch2c (in-place)
I1216 19:12:23.559557 28860 layer_factory.hpp:77] Creating layer stage4_1_branch2c_scale
I1216 19:12:23.559710 28860 net.cpp:150] Setting up stage4_1_branch2c_scale
I1216 19:12:23.559716 28860 net.cpp:157] Top shape: 30 8 16 16 (61440)
I1216 19:12:23.559720 28860 net.cpp:165] Memory required for data: 5254103808
I1216 19:12:23.559725 28860 layer_factory.hpp:77] Creating layer stage4_1_branch2c_relu
I1216 19:12:23.559732 28860 net.cpp:100] Creating Layer stage4_1_branch2c_relu
I1216 19:12:23.559736 28860 net.cpp:434] stage4_1_branch2c_relu <- stage4_1_branch2c
I1216 19:12:23.559742 28860 net.cpp:395] stage4_1_branch2c_relu -> stage4_1_branch2c (in-place)
I1216 19:12:23.560401 28860 net.cpp:150] Setting up stage4_1_branch2c_relu
I1216 19:12:23.560429 28860 net.cpp:157] Top shape: 30 8 16 16 (61440)
I1216 19:12:23.560433 28860 net.cpp:165] Memory required for data: 5254349568
I1216 19:12:23.560438 28860 layer_factory.hpp:77] Creating layer stage4_1_concat
I1216 19:12:23.560444 28860 net.cpp:100] Creating Layer stage4_1_concat
I1216 19:12:23.560448 28860 net.cpp:434] stage4_1_concat <- stage3_tb_pool_stage3_tb_pool_0_split_2
I1216 19:12:23.560453 28860 net.cpp:434] stage4_1_concat <- stage4_1_branch1b
I1216 19:12:23.560457 28860 net.cpp:434] stage4_1_concat <- stage4_1_branch2c
I1216 19:12:23.560465 28860 net.cpp:408] stage4_1_concat -> stage4_1_concat
I1216 19:12:23.560503 28860 net.cpp:150] Setting up stage4_1_concat
I1216 19:12:23.560510 28860 net.cpp:157] Top shape: 30 144 16 16 (1105920)
I1216 19:12:23.560513 28860 net.cpp:165] Memory required for data: 5258773248
I1216 19:12:23.560516 28860 layer_factory.hpp:77] Creating layer stage4_1_concat_stage4_1_concat_0_split
I1216 19:12:23.560537 28860 net.cpp:100] Creating Layer stage4_1_concat_stage4_1_concat_0_split
I1216 19:12:23.560541 28860 net.cpp:434] stage4_1_concat_stage4_1_concat_0_split <- stage4_1_concat
I1216 19:12:23.560554 28860 net.cpp:408] stage4_1_concat_stage4_1_concat_0_split -> stage4_1_concat_stage4_1_concat_0_split_0
I1216 19:12:23.560560 28860 net.cpp:408] stage4_1_concat_stage4_1_concat_0_split -> stage4_1_concat_stage4_1_concat_0_split_1
I1216 19:12:23.560570 28860 net.cpp:408] stage4_1_concat_stage4_1_concat_0_split -> stage4_1_concat_stage4_1_concat_0_split_2
I1216 19:12:23.560637 28860 net.cpp:150] Setting up stage4_1_concat_stage4_1_concat_0_split
I1216 19:12:23.560644 28860 net.cpp:157] Top shape: 30 144 16 16 (1105920)
I1216 19:12:23.560648 28860 net.cpp:157] Top shape: 30 144 16 16 (1105920)
I1216 19:12:23.560653 28860 net.cpp:157] Top shape: 30 144 16 16 (1105920)
I1216 19:12:23.560655 28860 net.cpp:165] Memory required for data: 5272044288
I1216 19:12:23.560659 28860 layer_factory.hpp:77] Creating layer stage4_2_branch1a
I1216 19:12:23.560670 28860 net.cpp:100] Creating Layer stage4_2_branch1a
I1216 19:12:23.560678 28860 net.cpp:434] stage4_2_branch1a <- stage4_1_concat_stage4_1_concat_0_split_0
I1216 19:12:23.560683 28860 net.cpp:408] stage4_2_branch1a -> stage4_2_branch1a
I1216 19:12:23.566042 28860 net.cpp:150] Setting up stage4_2_branch1a
I1216 19:12:23.566074 28860 net.cpp:157] Top shape: 30 32 16 16 (245760)
I1216 19:12:23.566079 28860 net.cpp:165] Memory required for data: 5273027328
I1216 19:12:23.566087 28860 layer_factory.hpp:77] Creating layer stage4_2_branch1a_bn
I1216 19:12:23.566092 28860 net.cpp:100] Creating Layer stage4_2_branch1a_bn
I1216 19:12:23.566097 28860 net.cpp:434] stage4_2_branch1a_bn <- stage4_2_branch1a
I1216 19:12:23.566104 28860 net.cpp:395] stage4_2_branch1a_bn -> stage4_2_branch1a (in-place)
I1216 19:12:23.566375 28860 net.cpp:150] Setting up stage4_2_branch1a_bn
I1216 19:12:23.566382 28860 net.cpp:157] Top shape: 30 32 16 16 (245760)
I1216 19:12:23.566385 28860 net.cpp:165] Memory required for data: 5274010368
I1216 19:12:23.566392 28860 layer_factory.hpp:77] Creating layer stage4_2_branch1a_scale
I1216 19:12:23.566398 28860 net.cpp:100] Creating Layer stage4_2_branch1a_scale
I1216 19:12:23.566402 28860 net.cpp:434] stage4_2_branch1a_scale <- stage4_2_branch1a
I1216 19:12:23.566408 28860 net.cpp:395] stage4_2_branch1a_scale -> stage4_2_branch1a (in-place)
I1216 19:12:23.566462 28860 layer_factory.hpp:77] Creating layer stage4_2_branch1a_scale
I1216 19:12:23.566615 28860 net.cpp:150] Setting up stage4_2_branch1a_scale
I1216 19:12:23.566623 28860 net.cpp:157] Top shape: 30 32 16 16 (245760)
I1216 19:12:23.566627 28860 net.cpp:165] Memory required for data: 5274993408
I1216 19:12:23.566661 28860 layer_factory.hpp:77] Creating layer stage4_2_branch1a_relu
I1216 19:12:23.566668 28860 net.cpp:100] Creating Layer stage4_2_branch1a_relu
I1216 19:12:23.566673 28860 net.cpp:434] stage4_2_branch1a_relu <- stage4_2_branch1a
I1216 19:12:23.566676 28860 net.cpp:395] stage4_2_branch1a_relu -> stage4_2_branch1a (in-place)
I1216 19:12:23.567328 28860 net.cpp:150] Setting up stage4_2_branch1a_relu
I1216 19:12:23.567339 28860 net.cpp:157] Top shape: 30 32 16 16 (245760)
I1216 19:12:23.567358 28860 net.cpp:165] Memory required for data: 5275976448
I1216 19:12:23.567363 28860 layer_factory.hpp:77] Creating layer stage4_2_branch1b
I1216 19:12:23.567373 28860 net.cpp:100] Creating Layer stage4_2_branch1b
I1216 19:12:23.567378 28860 net.cpp:434] stage4_2_branch1b <- stage4_2_branch1a
I1216 19:12:23.567386 28860 net.cpp:408] stage4_2_branch1b -> stage4_2_branch1b
I1216 19:12:23.571066 28860 net.cpp:150] Setting up stage4_2_branch1b
I1216 19:12:23.571081 28860 net.cpp:157] Top shape: 30 8 16 16 (61440)
I1216 19:12:23.571100 28860 net.cpp:165] Memory required for data: 5276222208
I1216 19:12:23.571106 28860 layer_factory.hpp:77] Creating layer stage4_2_branch1b_bn
I1216 19:12:23.571115 28860 net.cpp:100] Creating Layer stage4_2_branch1b_bn
I1216 19:12:23.571133 28860 net.cpp:434] stage4_2_branch1b_bn <- stage4_2_branch1b
I1216 19:12:23.571139 28860 net.cpp:395] stage4_2_branch1b_bn -> stage4_2_branch1b (in-place)
I1216 19:12:23.571415 28860 net.cpp:150] Setting up stage4_2_branch1b_bn
I1216 19:12:23.571424 28860 net.cpp:157] Top shape: 30 8 16 16 (61440)
I1216 19:12:23.571442 28860 net.cpp:165] Memory required for data: 5276467968
I1216 19:12:23.571449 28860 layer_factory.hpp:77] Creating layer stage4_2_branch1b_scale
I1216 19:12:23.571470 28860 net.cpp:100] Creating Layer stage4_2_branch1b_scale
I1216 19:12:23.571473 28860 net.cpp:434] stage4_2_branch1b_scale <- stage4_2_branch1b
I1216 19:12:23.571478 28860 net.cpp:395] stage4_2_branch1b_scale -> stage4_2_branch1b (in-place)
I1216 19:12:23.571533 28860 layer_factory.hpp:77] Creating layer stage4_2_branch1b_scale
I1216 19:12:23.571681 28860 net.cpp:150] Setting up stage4_2_branch1b_scale
I1216 19:12:23.571691 28860 net.cpp:157] Top shape: 30 8 16 16 (61440)
I1216 19:12:23.571694 28860 net.cpp:165] Memory required for data: 5276713728
I1216 19:12:23.571702 28860 layer_factory.hpp:77] Creating layer stage4_2_branch1b_relu
I1216 19:12:23.571707 28860 net.cpp:100] Creating Layer stage4_2_branch1b_relu
I1216 19:12:23.571710 28860 net.cpp:434] stage4_2_branch1b_relu <- stage4_2_branch1b
I1216 19:12:23.571715 28860 net.cpp:395] stage4_2_branch1b_relu -> stage4_2_branch1b (in-place)
I1216 19:12:23.573146 28860 net.cpp:150] Setting up stage4_2_branch1b_relu
I1216 19:12:23.573159 28860 net.cpp:157] Top shape: 30 8 16 16 (61440)
I1216 19:12:23.573179 28860 net.cpp:165] Memory required for data: 5276959488
I1216 19:12:23.573182 28860 layer_factory.hpp:77] Creating layer stage4_2_branch2a
I1216 19:12:23.573194 28860 net.cpp:100] Creating Layer stage4_2_branch2a
I1216 19:12:23.573199 28860 net.cpp:434] stage4_2_branch2a <- stage4_1_concat_stage4_1_concat_0_split_1
I1216 19:12:23.573206 28860 net.cpp:408] stage4_2_branch2a -> stage4_2_branch2a
I1216 19:12:23.576262 28860 net.cpp:150] Setting up stage4_2_branch2a
…
I1216 19:12:23.983068 28860 net.cpp:408] resP2_inter_branch1 -> resP2_inter_branch1
I1216 19:12:23.986661 28860 net.cpp:150] Setting up resP2_inter_branch1
I1216 19:12:23.986680 28860 net.cpp:157] Top shape: 30 64 32 32 (1966080)
I1216 19:12:23.986685 28860 net.cpp:165] Memory required for data: 5944036608
I1216 19:12:23.986691 28860 layer_factory.hpp:77] Creating layer bnP2_inter_branch1
I1216 19:12:23.986699 28860 net.cpp:100] Creating Layer bnP2_inter_branch1
I1216 19:12:23.986704 28860 net.cpp:434] bnP2_inter_branch1 <- resP2_inter_branch1
I1216 19:12:23.986716 28860 net.cpp:395] bnP2_inter_branch1 -> resP2_inter_branch1 (in-place)
I1216 19:12:23.986992 28860 net.cpp:150] Setting up bnP2_inter_branch1
I1216 19:12:23.987004 28860 net.cpp:157] Top shape: 30 64 32 32 (1966080)
I1216 19:12:23.987007 28860 net.cpp:165] Memory required for data: 5951900928
I1216 19:12:23.987017 28860 layer_factory.hpp:77] Creating layer scaleP2_inter_branch1
I1216 19:12:23.987027 28860 net.cpp:100] Creating Layer scaleP2_inter_branch1
I1216 19:12:23.987035 28860 net.cpp:434] scaleP2_inter_branch1 <- resP2_inter_branch1
I1216 19:12:23.987041 28860 net.cpp:395] scaleP2_inter_branch1 -> resP2_inter_branch1 (in-place)
I1216 19:12:23.987112 28860 layer_factory.hpp:77] Creating layer scaleP2_inter_branch1
I1216 19:12:23.987288 28860 net.cpp:150] Setting up scaleP2_inter_branch1
I1216 19:12:23.987298 28860 net.cpp:157] Top shape: 30 64 32 32 (1966080)
I1216 19:12:23.987301 28860 net.cpp:165] Memory required for data: 5959765248
I1216 19:12:23.987309 28860 layer_factory.hpp:77] Creating layer resP2_inter_branch2a
I1216 19:12:23.987323 28860 net.cpp:100] Creating Layer resP2_inter_branch2a
I1216 19:12:23.987329 28860 net.cpp:434] resP2_inter_branch2a <- P2_P2_relu_0_split_1
I1216 19:12:23.987337 28860 net.cpp:408] resP2_inter_branch2a -> resP2_inter_branch2a
I1216 19:12:23.993257 28860 net.cpp:150] Setting up resP2_inter_branch2a
I1216 19:12:23.993286 28860 net.cpp:157] Top shape: 30 64 32 32 (1966080)
I1216 19:12:23.993295 28860 net.cpp:165] Memory required for data: 5967629568
I1216 19:12:23.993310 28860 layer_factory.hpp:77] Creating layer bnP2_inter_branch2a
I1216 19:12:23.993333 28860 net.cpp:100] Creating Layer bnP2_inter_branch2a
I1216 19:12:23.993341 28860 net.cpp:434] bnP2_inter_branch2a <- resP2_inter_branch2a
I1216 19:12:23.993356 28860 net.cpp:395] bnP2_inter_branch2a -> resP2_inter_branch2a (in-place)
I1216 19:12:23.993652 28860 net.cpp:150] Setting up bnP2_inter_branch2a
I1216 19:12:23.993664 28860 net.cpp:157] Top shape: 30 64 32 32 (1966080)
I1216 19:12:23.993666 28860 net.cpp:165] Memory required for data: 5975493888
I1216 19:12:23.993674 28860 layer_factory.hpp:77] Creating layer scaleP2_inter_branch2a
I1216 19:12:23.993685 28860 net.cpp:100] Creating Layer scaleP2_inter_branch2a
I1216 19:12:23.993690 28860 net.cpp:434] scaleP2_inter_branch2a <- resP2_inter_branch2a
I1216 19:12:23.993695 28860 net.cpp:395] scaleP2_inter_branch2a -> resP2_inter_branch2a (in-place)
I1216 19:12:23.993747 28860 layer_factory.hpp:77] Creating layer scaleP2_inter_branch2a
I1216 19:12:23.993921 28860 net.cpp:150] Setting up scaleP2_inter_branch2a
I1216 19:12:23.993930 28860 net.cpp:157] Top shape: 30 64 32 32 (1966080)
I1216 19:12:23.993934 28860 net.cpp:165] Memory required for data: 5983358208
I1216 19:12:23.993942 28860 layer_factory.hpp:77] Creating layer resP2_inter_branch2a_relu
I1216 19:12:23.993947 28860 net.cpp:100] Creating Layer resP2_inter_branch2a_relu
I1216 19:12:23.993957 28860 net.cpp:434] resP2_inter_branch2a_relu <- resP2_inter_branch2a
I1216 19:12:23.993963 28860 net.cpp:395] resP2_inter_branch2a_relu -> resP2_inter_branch2a (in-place)
I1216 19:12:23.995519 28860 net.cpp:150] Setting up resP2_inter_branch2a_relu
I1216 19:12:23.995537 28860 net.cpp:157] Top shape: 30 64 32 32 (1966080)
I1216 19:12:23.995541 28860 net.cpp:165] Memory required for data: 5991222528
I1216 19:12:23.995548 28860 layer_factory.hpp:77] Creating layer resP2_inter_branch2b
I1216 19:12:23.995560 28860 net.cpp:100] Creating Layer resP2_inter_branch2b
I1216 19:12:23.995565 28860 net.cpp:434] resP2_inter_branch2b <- resP2_inter_branch2a
I1216 19:12:23.995576 28860 net.cpp:408] resP2_inter_branch2b -> resP2_inter_branch2b
I1216 19:12:23.999469 28860 net.cpp:150] Setting up resP2_inter_branch2b
I1216 19:12:23.999486 28860 net.cpp:157] Top shape: 30 64 32 32 (1966080)
I1216 19:12:23.999491 28860 net.cpp:165] Memory required for data: 5999086848
I1216 19:12:23.999500 28860 layer_factory.hpp:77] Creating layer bnP2_inter_branch2b
I1216 19:12:23.999512 28860 net.cpp:100] Creating Layer bnP2_inter_branch2b
I1216 19:12:23.999518 28860 net.cpp:434] bnP2_inter_branch2b <- resP2_inter_branch2b
I1216 19:12:23.999527 28860 net.cpp:395] bnP2_inter_branch2b -> resP2_inter_branch2b (in-place)
I1216 19:12:23.999795 28860 net.cpp:150] Setting up bnP2_inter_branch2b
I1216 19:12:23.999804 28860 net.cpp:157] Top shape: 30 64 32 32 (1966080)
I1216 19:12:23.999809 28860 net.cpp:165] Memory required for data: 6006951168
I1216 19:12:23.999816 28860 layer_factory.hpp:77] Creating layer scaleP2_inter_branch2b
I1216 19:12:23.999827 28860 net.cpp:100] Creating Layer scaleP2_inter_branch2b
I1216 19:12:23.999831 28860 net.cpp:434] scaleP2_inter_branch2b <- resP2_inter_branch2b
I1216 19:12:23.999852 28860 net.cpp:395] scaleP2_inter_branch2b -> resP2_inter_branch2b (in-place)
I1216 19:12:23.999915 28860 layer_factory.hpp:77] Creating layer scaleP2_inter_branch2b
I1216 19:12:24.000092 28860 net.cpp:150] Setting up scaleP2_inter_branch2b
I1216 19:12:24.000109 28860 net.cpp:157] Top shape: 30 64 32 32 (1966080)
I1216 19:12:24.000113 28860 net.cpp:165] Memory required for data: 6014815488
I1216 19:12:24.000123 28860 layer_factory.hpp:77] Creating layer resP2_inter_branch2b_relu
I1216 19:12:24.000129 28860 net.cpp:100] Creating Layer resP2_inter_branch2b_relu
I1216 19:12:24.000134 28860 net.cpp:434] resP2_inter_branch2b_relu <- resP2_inter_branch2b
I1216 19:12:24.000139 28860 net.cpp:395] resP2_inter_branch2b_relu -> resP2_inter_branch2b (in-place)
I1216 19:12:24.000963 28860 net.cpp:150] Setting up resP2_inter_branch2b_relu
I1216 19:12:24.000977 28860 net.cpp:157] Top shape: 30 64 32 32 (1966080)
I1216 19:12:24.000980 28860 net.cpp:165] Memory required for data: 6022679808
I1216 19:12:24.000984 28860 layer_factory.hpp:77] Creating layer resP2_inter
I1216 19:12:24.000993 28860 net.cpp:100] Creating Layer resP2_inter
I1216 19:12:24.000999 28860 net.cpp:434] resP2_inter <- resP2_inter_branch1
I1216 19:12:24.001004 28860 net.cpp:434] resP2_inter <- resP2_inter_branch2b
I1216 19:12:24.001011 28860 net.cpp:408] resP2_inter -> resP2_inter
I1216 19:12:24.001049 28860 net.cpp:150] Setting up resP2_inter
I1216 19:12:24.001057 28860 net.cpp:157] Top shape: 30 64 32 32 (1966080)
I1216 19:12:24.001061 28860 net.cpp:165] Memory required for data: 6030544128
I1216 19:12:24.001065 28860 layer_factory.hpp:77] Creating layer resP2_inter_relu
I1216 19:12:24.001070 28860 net.cpp:100] Creating Layer resP2_inter_relu
I1216 19:12:24.001075 28860 net.cpp:434] resP2_inter_relu <- resP2_inter
I1216 19:12:24.001083 28860 net.cpp:395] resP2_inter_relu -> resP2_inter (in-place)
I1216 19:12:24.002923 28860 net.cpp:150] Setting up resP2_inter_relu
I1216 19:12:24.002938 28860 net.cpp:157] Top shape: 30 64 32 32 (1966080)
I1216 19:12:24.002943 28860 net.cpp:165] Memory required for data: 6038408448
I1216 19:12:24.002949 28860 layer_factory.hpp:77] Creating layer resP2_inter_resP2_inter_relu_0_split
I1216 19:12:24.002956 28860 net.cpp:100] Creating Layer resP2_inter_resP2_inter_relu_0_split
I1216 19:12:24.002961 28860 net.cpp:434] resP2_inter_resP2_inter_relu_0_split <- resP2_inter
I1216 19:12:24.002971 28860 net.cpp:408] resP2_inter_resP2_inter_relu_0_split -> resP2_inter_resP2_inter_relu_0_split_0
I1216 19:12:24.002980 28860 net.cpp:408] resP2_inter_resP2_inter_relu_0_split -> resP2_inter_resP2_inter_relu_0_split_1
I1216 19:12:24.003038 28860 net.cpp:150] Setting up resP2_inter_resP2_inter_relu_0_split
I1216 19:12:24.003046 28860 net.cpp:157] Top shape: 30 64 32 32 (1966080)
I1216 19:12:24.003052 28860 net.cpp:157] Top shape: 30 64 32 32 (1966080)
I1216 19:12:24.003055 28860 net.cpp:165] Memory required for data: 6054137088
I1216 19:12:24.003059 28860 layer_factory.hpp:77] Creating layer resP2_inter_mbox_loc
I1216 19:12:24.003072 28860 net.cpp:100] Creating Layer resP2_inter_mbox_loc
I1216 19:12:24.003079 28860 net.cpp:434] resP2_inter_mbox_loc <- resP2_inter_resP2_inter_relu_0_split_0
I1216 19:12:24.003089 28860 net.cpp:408] resP2_inter_mbox_loc -> resP2_inter_mbox_loc
I1216 19:12:24.008616 28860 net.cpp:150] Setting up resP2_inter_mbox_loc
I1216 19:12:24.008633 28860 net.cpp:157] Top shape: 30 12 32 32 (368640)
I1216 19:12:24.008639 28860 net.cpp:165] Memory required for data: 6055611648
I1216 19:12:24.008647 28860 layer_factory.hpp:77] Creating layer resP2_inter_mbox_loc_perm
I1216 19:12:24.008657 28860 net.cpp:100] Creating Layer resP2_inter_mbox_loc_perm
I1216 19:12:24.008662 28860 net.cpp:434] resP2_inter_mbox_loc_perm <- resP2_inter_mbox_loc
I1216 19:12:24.008671 28860 net.cpp:408] resP2_inter_mbox_loc_perm -> resP2_inter_mbox_loc_perm
I1216 19:12:24.008800 28860 net.cpp:150] Setting up resP2_inter_mbox_loc_perm
I1216 19:12:24.008808 28860 net.cpp:157] Top shape: 30 32 32 12 (368640)
I1216 19:12:24.008812 28860 net.cpp:165] Memory required for data: 6057086208
I1216 19:12:24.008832 28860 layer_factory.hpp:77] Creating layer resP2_inter_mbox_loc_flat
I1216 19:12:24.008841 28860 net.cpp:100] Creating Layer resP2_inter_mbox_loc_flat
I1216 19:12:24.008846 28860 net.cpp:434] resP2_inter_mbox_loc_flat <- resP2_inter_mbox_loc_perm
I1216 19:12:24.008852 28860 net.cpp:408] resP2_inter_mbox_loc_flat -> resP2_inter_mbox_loc_flat
I1216 19:12:24.008884 28860 net.cpp:150] Setting up resP2_inter_mbox_loc_flat
I1216 19:12:24.008893 28860 net.cpp:157] Top shape: 30 12288 (368640)
I1216 19:12:24.008895 28860 net.cpp:165] Memory required for data: 6058560768
I1216 19:12:24.008899 28860 layer_factory.hpp:77] Creating layer resP2_inter_mbox_conf_ft
I1216 19:12:24.008913 28860 net.cpp:100] Creating Layer resP2_inter_mbox_conf_ft
I1216 19:12:24.008919 28860 net.cpp:434] resP2_inter_mbox_conf_ft <- resP2_inter_resP2_inter_relu_0_split_1
I1216 19:12:24.008929 28860 net.cpp:408] resP2_inter_mbox_conf_ft -> resP2_inter_mbox_conf_ft
I1216 19:12:24.016980 28860 net.cpp:150] Setting up resP2_inter_mbox_conf_ft
I1216 19:12:24.017015 28860 net.cpp:157] Top shape: 30 6 32 32 (184320)
I1216 19:12:24.017024 28860 net.cpp:165] Memory required for data: 6059298048
I1216 19:12:24.017036 28860 layer_factory.hpp:77] Creating layer resP2_inter_mbox_conf_ft_perm_ft
I1216 19:12:24.017053 28860 net.cpp:100] Creating Layer resP2_inter_mbox_conf_ft_perm_ft
I1216 19:12:24.017066 28860 net.cpp:434] resP2_inter_mbox_conf_ft_perm_ft <- resP2_inter_mbox_conf_ft
I1216 19:12:24.017081 28860 net.cpp:408] resP2_inter_mbox_conf_ft_perm_ft -> resP2_inter_mbox_conf_ft_perm_ft
I1216 19:12:24.017314 28860 net.cpp:150] Setting up resP2_inter_mbox_conf_ft_perm_ft
I1216 19:12:24.017328 28860 net.cpp:157] Top shape: 30 32 32 6 (184320)
I1216 19:12:24.017335 28860 net.cpp:165] Memory required for data: 6060035328
I1216 19:12:24.017344 28860 layer_factory.hpp:77] Creating layer resP2_inter_mbox_conf_ft_flat_ft
I1216 19:12:24.017359 28860 net.cpp:100] Creating Layer resP2_inter_mbox_conf_ft_flat_ft
I1216 19:12:24.017369 28860 net.cpp:434] resP2_inter_mbox_conf_ft_flat_ft <- resP2_inter_mbox_conf_ft_perm_ft
I1216 19:12:24.017380 28860 net.cpp:408] resP2_inter_mbox_conf_ft_flat_ft -> resP2_inter_mbox_conf_ft_flat_ft
I1216 19:12:24.017431 28860 net.cpp:150] Setting up resP2_inter_mbox_conf_ft_flat_ft
I1216 19:12:24.017442 28860 net.cpp:157] Top shape: 30 6144 (184320)
I1216 19:12:24.017448 28860 net.cpp:165] Memory required for data: 6060772608
I1216 19:12:24.017457 28860 layer_factory.hpp:77] Creating layer resP3_inter_branch1
I1216 19:12:24.017474 28860 net.cpp:100] Creating Layer resP3_inter_branch1
I1216 19:12:24.017484 28860 net.cpp:434] resP3_inter_branch1 <- P3_P3_relu_0_split_1
I1216 19:12:24.017500 28860 net.cpp:408] resP3_inter_branch1 -> resP3_inter_branch1
I1216 19:12:24.031252 28860 net.cpp:150] Setting up resP3_inter_branch1
I1216 19:12:24.031283 28860 net.cpp:157] Top shape: 30 64 16 16 (491520)
I1216 19:12:24.031293 28860 net.cpp:165] Memory required for data: 6062738688
I1216 19:12:24.031304 28860 layer_factory.hpp:77] Creating layer bnP3_inter_branch1
I1216 19:12:24.031323 28860 net.cpp:100] Creating Layer bnP3_inter_branch1
I1216 19:12:24.031334 28860 net.cpp:434] bnP3_inter_branch1 <- resP3_inter_branch1
I1216 19:12:24.031345 28860 net.cpp:395] bnP3_inter_branch1 -> resP3_inter_branch1 (in-place)
I1216 19:12:24.031759 28860 net.cpp:150] Setting up bnP3_inter_branch1
I1216 19:12:24.031775 28860 net.cpp:157] Top shape: 30 64 16 16 (491520)
I1216 19:12:24.031781 28860 net.cpp:165] Memory required for data: 6064704768
I1216 19:12:24.031810 28860 layer_factory.hpp:77] Creating layer scaleP3_inter_branch1
I1216 19:12:24.031823 28860 net.cpp:100] Creating Layer scaleP3_inter_branch1
I1216 19:12:24.031834 28860 net.cpp:434] scaleP3_inter_branch1 <- resP3_inter_branch1
I1216 19:12:24.031847 28860 net.cpp:395] scaleP3_inter_branch1 -> resP3_inter_branch1 (in-place)
I1216 19:12:24.031934 28860 layer_factory.hpp:77] Creating layer scaleP3_inter_branch1
I1216 19:12:24.032162 28860 net.cpp:150] Setting up scaleP3_inter_branch1
I1216 19:12:24.032202 28860 net.cpp:157] Top shape: 30 64 16 16 (491520)
I1216 19:12:24.032212 28860 net.cpp:165] Memory required for data: 6066670848
I1216 19:12:24.032224 28860 layer_factory.hpp:77] Creating layer resP3_inter_branch2a
I1216 19:12:24.032246 28860 net.cpp:100] Creating Layer resP3_inter_branch2a
I1216 19:12:24.032258 28860 net.cpp:434] resP3_inter_branch2a <- P3_P3_relu_0_split_2
I1216 19:12:24.032271 28860 net.cpp:408] resP3_inter_branch2a -> resP3_inter_branch2a
I1216 19:12:24.042511 28860 net.cpp:150] Setting up resP3_inter_branch2a
I1216 19:12:24.042542 28860 net.cpp:157] Top shape: 30 64 16 16 (491520)
I1216 19:12:24.042551 28860 net.cpp:165] Memory required for data: 6068636928
I1216 19:12:24.042563 28860 layer_factory.hpp:77] Creating layer bnP3_inter_branch2a
I1216 19:12:24.042580 28860 net.cpp:100] Creating Layer bnP3_inter_branch2a
I1216 19:12:24.042592 28860 net.cpp:434] bnP3_inter_branch2a <- resP3_inter_branch2a
I1216 19:12:24.042606 28860 net.cpp:395] bnP3_inter_branch2a -> resP3_inter_branch2a (in-place)
I1216 19:12:24.043073 28860 net.cpp:150] Setting up bnP3_inter_branch2a
I1216 19:12:24.043087 28860 net.cpp:157] Top shape: 30 64 16 16 (491520)
I1216 19:12:24.043093 28860 net.cpp:165] Memory required for data: 6070603008
I1216 19:12:24.043107 28860 layer_factory.hpp:77] Creating layer scaleP3_inter_branch2a
I1216 19:12:24.043119 28860 net.cpp:100] Creating Layer scaleP3_inter_branch2a
I1216 19:12:24.043126 28860 net.cpp:434] scaleP3_inter_branch2a <- resP3_inter_branch2a
I1216 19:12:24.043139 28860 net.cpp:395] scaleP3_inter_branch2a -> resP3_inter_branch2a (in-place)
I1216 19:12:24.043226 28860 layer_factory.hpp:77] Creating layer scaleP3_inter_branch2a
I1216 19:12:24.043442 28860 net.cpp:150] Setting up scaleP3_inter_branch2a
I1216 19:12:24.043455 28860 net.cpp:157] Top shape: 30 64 16 16 (491520)
I1216 19:12:24.043462 28860 net.cpp:165] Memory required for data: 6072569088
I1216 19:12:24.043475 28860 layer_factory.hpp:77] Creating layer resP3_inter_branch2a_relu
I1216 19:12:24.043490 28860 net.cpp:100] Creating Layer resP3_inter_branch2a_relu
I1216 19:12:24.043498 28860 net.cpp:434] resP3_inter_branch2a_relu <- resP3_inter_branch2a
I1216 19:12:24.043509 28860 net.cpp:395] resP3_inter_branch2a_relu -> resP3_inter_branch2a (in-place)
I1216 19:12:24.044764 28860 net.cpp:150] Setting up resP3_inter_branch2a_relu
I1216 19:12:24.044783 28860 net.cpp:157] Top shape: 30 64 16 16 (491520)
I1216 19:12:24.044790 28860 net.cpp:165] Memory required for data: 6074535168
I1216 19:12:24.044795 28860 layer_factory.hpp:77] Creating layer resP3_inter_branch2b
I1216 19:12:24.044814 28860 net.cpp:100] Creating Layer resP3_inter_branch2b
I1216 19:12:24.044823 28860 net.cpp:434] resP3_inter_branch2b <- resP3_inter_branch2a
I1216 19:12:24.044837 28860 net.cpp:408] resP3_inter_branch2b -> resP3_inter_branch2b
I1216 19:12:24.054994 28860 net.cpp:150] Setting up resP3_inter_branch2b
I1216 19:12:24.055025 28860 net.cpp:157] Top shape: 30 64 16 16 (491520)
I1216 19:12:24.055032 28860 net.cpp:165] Memory required for data: 6076501248
I1216 19:12:24.055042 28860 layer_factory.hpp:77] Creating layer bnP3_inter_branch2b
I1216 19:12:24.055053 28860 net.cpp:100] Creating Layer bnP3_inter_branch2b
I1216 19:12:24.055063 28860 net.cpp:434] bnP3_inter_branch2b <- resP3_inter_branch2b
I1216 19:12:24.055074 28860 net.cpp:395] bnP3_inter_branch2b -> resP3_inter_branch2b (in-place)
I1216 19:12:24.055444 28860 net.cpp:150] Setting up bnP3_inter_branch2b
I1216 19:12:24.055456 28860 net.cpp:157] Top shape: 30 64 16 16 (491520)
I1216 19:12:24.055462 28860 net.cpp:165] Memory required for data: 6078467328
I1216 19:12:24.055477 28860 layer_factory.hpp:77] Creating layer scaleP3_inter_branch2b
I1216 19:12:24.055488 28860 net.cpp:100] Creating Layer scaleP3_inter_branch2b
I1216 19:12:24.055495 28860 net.cpp:434] scaleP3_inter_branch2b <- resP3_inter_branch2b
I1216 19:12:24.055507 28860 net.cpp:395] scaleP3_inter_branch2b -> resP3_inter_branch2b (in-place)
I1216 19:12:24.055580 28860 layer_factory.hpp:77] Creating layer scaleP3_inter_branch2b
I1216 19:12:24.055811 28860 net.cpp:150] Setting up scaleP3_inter_branch2b
I1216 19:12:24.055824 28860 net.cpp:157] Top shape: 30 64 16 16 (491520)
I1216 19:12:24.055830 28860 net.cpp:165] Memory required for data: 6080433408
I1216 19:12:24.055840 28860 layer_factory.hpp:77] Creating layer resP3_inter_branch2b_relu
I1216 19:12:24.055852 28860 net.cpp:100] Creating Layer resP3_inter_branch2b_relu
I1216 19:12:24.055860 28860 net.cpp:434] resP3_inter_branch2b_relu <- resP3_inter_branch2b
I1216 19:12:24.055871 28860 net.cpp:395] resP3_inter_branch2b_relu -> resP3_inter_branch2b (in-place)
I1216 19:12:24.057032 28860 net.cpp:150] Setting up resP3_inter_branch2b_relu
I1216 19:12:24.057050 28860 net.cpp:157] Top shape: 30 64 16 16 (491520)
I1216 19:12:24.057056 28860 net.cpp:165] Memory required for data: 6082399488
I1216 19:12:24.057063 28860 layer_factory.hpp:77] Creating layer resP3_inter
I1216 19:12:24.057075 28860 net.cpp:100] Creating Layer resP3_inter
I1216 19:12:24.057083 28860 net.cpp:434] resP3_inter <- resP3_inter_branch1
I1216 19:12:24.057092 28860 net.cpp:434] resP3_inter <- resP3_inter_branch2b
I1216 19:12:24.057102 28860 net.cpp:408] resP3_inter -> resP3_inter
I1216 19:12:24.057164 28860 net.cpp:150] Setting up resP3_inter
I1216 19:12:24.057175 28860 net.cpp:157] Top shape: 30 64 16 16 (491520)
I1216 19:12:24.057180 28860 net.cpp:165] Memory required for data: 6084365568
I1216 19:12:24.057190 28860 layer_factory.hpp:77] Creating layer resP3_inter_relu
I1216 19:12:24.057199 28860 net.cpp:100] Creating Layer resP3_inter_relu
I1216 19:12:24.057204 28860 net.cpp:434] resP3_inter_relu <- resP3_inter
I1216 19:12:24.057215 28860 net.cpp:395] resP3_inter_relu -> resP3_inter (in-place)
I1216 19:12:24.059844 28860 net.cpp:150] Setting up resP3_inter_relu
I1216 19:12:24.059870 28860 net.cpp:157] Top shape: 30 64 16 16 (491520)
I1216 19:12:24.059876 28860 net.cpp:165] Memory required for data: 6086331648
I1216 19:12:24.059883 28860 layer_factory.hpp:77] Creating layer resP3_inter_resP3_inter_relu_0_split
I1216 19:12:24.059895 28860 net.cpp:100] Creating Layer resP3_inter_resP3_inter_relu_0_split
I1216 19:12:24.059903 28860 net.cpp:434] resP3_inter_resP3_inter_relu_0_split <- resP3_inter
I1216 19:12:24.059918 28860 net.cpp:408] resP3_inter_resP3_inter_relu_0_split -> resP3_inter_resP3_inter_relu_0_split_0
I1216 19:12:24.059933 28860 net.cpp:408] resP3_inter_resP3_inter_relu_0_split -> resP3_inter_resP3_inter_relu_0_split_1
I1216 19:12:24.060026 28860 net.cpp:150] Setting up resP3_inter_resP3_inter_relu_0_split
I1216 19:12:24.060039 28860 net.cpp:157] Top shape: 30 64 16 16 (491520)
I1216 19:12:24.060046 28860 net.cpp:157] Top shape: 30 64 16 16 (491520)
I1216 19:12:24.060052 28860 net.cpp:165] Memory required for data: 6090263808
I1216 19:12:24.060060 28860 layer_factory.hpp:77] Creating layer resP3_inter_mbox_loc
I1216 19:12:24.060081 28860 net.cpp:100] Creating Layer resP3_inter_mbox_loc
I1216 19:12:24.060091 28860 net.cpp:434] resP3_inter_mbox_loc <- resP3_inter_resP3_inter_relu_0_split_0
I1216 19:12:24.060104 28860 net.cpp:408] resP3_inter_mbox_loc -> resP3_inter_mbox_loc
I1216 19:12:24.066978 28860 net.cpp:150] Setting up resP3_inter_mbox_loc
I1216 19:12:24.067004 28860 net.cpp:157] Top shape: 30 12 16 16 (92160)
I1216 19:12:24.067010 28860 net.cpp:165] Memory required for data: 6090632448
I1216 19:12:24.067021 28860 layer_factory.hpp:77] Creating layer resP3_inter_mbox_loc_perm
I1216 19:12:24.067037 28860 net.cpp:100] Creating Layer resP3_inter_mbox_loc_perm
I1216 19:12:24.067044 28860 net.cpp:434] resP3_inter_mbox_loc_perm <- resP3_inter_mbox_loc
I1216 19:12:24.067059 28860 net.cpp:408] resP3_inter_mbox_loc_perm -> resP3_inter_mbox_loc_perm
I1216 19:12:24.067229 28860 net.cpp:150] Setting up resP3_inter_mbox_loc_perm
I1216 19:12:24.067240 28860 net.cpp:157] Top shape: 30 16 16 12 (92160)
I1216 19:12:24.067245 28860 net.cpp:165] Memory required for data: 6091001088
I1216 19:12:24.067251 28860 layer_factory.hpp:77] Creating layer resP3_inter_mbox_loc_flat
I1216 19:12:24.067262 28860 net.cpp:100] Creating Layer resP3_inter_mbox_loc_flat
I1216 19:12:24.067291 28860 net.cpp:434] resP3_inter_mbox_loc_flat <- resP3_inter_mbox_loc_perm
I1216 19:12:24.067301 28860 net.cpp:408] resP3_inter_mbox_loc_flat -> resP3_inter_mbox_loc_flat
I1216 19:12:24.067348 28860 net.cpp:150] Setting up resP3_inter_mbox_loc_flat
I1216 19:12:24.067360 28860 net.cpp:157] Top shape: 30 3072 (92160)
I1216 19:12:24.067366 28860 net.cpp:165] Memory required for data: 6091369728
I1216 19:12:24.067379 28860 layer_factory.hpp:77] Creating layer resP3_inter_mbox_conf_ft
I1216 19:12:24.067399 28860 net.cpp:100] Creating Layer resP3_inter_mbox_conf_ft
I1216 19:12:24.067407 28860 net.cpp:434] resP3_inter_mbox_conf_ft <- resP3_inter_resP3_inter_relu_0_split_1
I1216 19:12:24.067421 28860 net.cpp:408] resP3_inter_mbox_conf_ft -> resP3_inter_mbox_conf_ft
I1216 19:12:24.073705 28860 net.cpp:150] Setting up resP3_inter_mbox_conf_ft
I1216 19:12:24.073731 28860 net.cpp:157] Top shape: 30 6 16 16 (46080)
I1216 19:12:24.073737 28860 net.cpp:165] Memory required for data: 6091554048
I1216 19:12:24.073750 28860 layer_factory.hpp:77] Creating layer resP3_inter_mbox_conf_ft_perm_ft
I1216 19:12:24.073766 28860 net.cpp:100] Creating Layer resP3_inter_mbox_conf_ft_perm_ft
I1216 19:12:24.073776 28860 net.cpp:434] resP3_inter_mbox_conf_ft_perm_ft <- resP3_inter_mbox_conf_ft
I1216 19:12:24.073787 28860 net.cpp:408] resP3_inter_mbox_conf_ft_perm_ft -> resP3_inter_mbox_conf_ft_perm_ft
I1216 19:12:24.073963 28860 net.cpp:150] Setting up resP3_inter_mbox_conf_ft_perm_ft
I1216 19:12:24.073976 28860 net.cpp:157] Top shape: 30 16 16 6 (46080)
I1216 19:12:24.073981 28860 net.cpp:165] Memory required for data: 6091738368
I1216 19:12:24.073987 28860 layer_factory.hpp:77] Creating layer resP3_inter_mbox_conf_ft_flat_ft
I1216 19:12:24.073997 28860 net.cpp:100] Creating Layer resP3_inter_mbox_conf_ft_flat_ft
I1216 19:12:24.074002 28860 net.cpp:434] resP3_inter_mbox_conf_ft_flat_ft <- resP3_inter_mbox_conf_ft_perm_ft
I1216 19:12:24.074014 28860 net.cpp:408] resP3_inter_mbox_conf_ft_flat_ft -> resP3_inter_mbox_conf_ft_flat_ft
I1216 19:12:24.074056 28860 net.cpp:150] Setting up resP3_inter_mbox_conf_ft_flat_ft
I1216 19:12:24.074069 28860 net.cpp:157] Top shape: 30 1536 (46080)
I1216 19:12:24.074074 28860 net.cpp:165] Memory required for data: 6091922688
I1216 19:12:24.074079 28860 layer_factory.hpp:77] Creating layer resP4_inter_branch1
I1216 19:12:24.074095 28860 net.cpp:100] Creating Layer resP4_inter_branch1
I1216 19:12:24.074105 28860 net.cpp:434] resP4_inter_branch1 <- P4_P4_relu_0_split_1
I1216 19:12:24.074118 28860 net.cpp:408] resP4_inter_branch1 -> resP4_inter_branch1
I1216 19:12:24.081908 28860 net.cpp:150] Setting up resP4_inter_branch1
I1216 19:12:24.081938 28860 net.cpp:157] Top shape: 30 64 8 8 (122880)
I1216 19:12:24.081946 28860 net.cpp:165] Memory required for data: 6092414208
I1216 19:12:24.081959 28860 layer_factory.hpp:77] Creating layer bnP4_inter_branch1
I1216 19:12:24.081972 28860 net.cpp:100] Creating Layer bnP4_inter_branch1
I1216 19:12:24.081981 28860 net.cpp:434] bnP4_inter_branch1 <- resP4_inter_branch1
I1216 19:12:24.081995 28860 net.cpp:395] bnP4_inter_branch1 -> resP4_inter_branch1 (in-place)
I1216 19:12:24.082330 28860 net.cpp:150] Setting up bnP4_inter_branch1
I1216 19:12:24.082343 28860 net.cpp:157] Top shape: 30 64 8 8 (122880)
I1216 19:12:24.082348 28860 net.cpp:165] Memory required for data: 6092905728
I1216 19:12:24.082360 28860 layer_factory.hpp:77] Creating layer scaleP4_inter_branch1
I1216 19:12:24.082376 28860 net.cpp:100] Creating Layer scaleP4_inter_branch1
I1216 19:12:24.082384 28860 net.cpp:434] scaleP4_inter_branch1 <- resP4_inter_branch1
I1216 19:12:24.082392 28860 net.cpp:395] scaleP4_inter_branch1 -> resP4_inter_branch1 (in-place)
I1216 19:12:24.082458 28860 layer_factory.hpp:77] Creating layer scaleP4_inter_branch1
I1216 19:12:24.082648 28860 net.cpp:150] Setting up scaleP4_inter_branch1
I1216 19:12:24.082659 28860 net.cpp:157] Top shape: 30 64 8 8 (122880)
I1216 19:12:24.082664 28860 net.cpp:165] Memory required for data: 6093397248
I1216 19:12:24.082695 28860 layer_factory.hpp:77] Creating layer resP4_inter_branch2a
I1216 19:12:24.082712 28860 net.cpp:100] Creating Layer resP4_inter_branch2a
I1216 19:12:24.082721 28860 net.cpp:434] resP4_inter_branch2a <- P4_P4_relu_0_split_2
I1216 19:12:24.082734 28860 net.cpp:408] resP4_inter_branch2a -> resP4_inter_branch2a
I1216 19:12:24.094302 28860 net.cpp:150] Setting up resP4_inter_branch2a
I1216 19:12:24.094326 28860 net.cpp:157] Top shape: 30 64 8 8 (122880)
I1216 19:12:24.094332 28860 net.cpp:165] Memory required for data: 6093888768
I1216 19:12:24.094343 28860 layer_factory.hpp:77] Creating layer bnP4_inter_branch2a
I1216 19:12:24.094357 28860 net.cpp:100] Creating Layer bnP4_inter_branch2a
I1216 19:12:24.094362 28860 net.cpp:434] bnP4_inter_branch2a <- resP4_inter_branch2a
I1216 19:12:24.094373 28860 net.cpp:395] bnP4_inter_branch2a -> resP4_inter_branch2a (in-place)
I1216 19:12:24.094707 28860 net.cpp:150] Setting up bnP4_inter_branch2a
I1216 19:12:24.094719 28860 net.cpp:157] Top shape: 30 64 8 8 (122880)
I1216 19:12:24.094724 28860 net.cpp:165] Memory required for data: 6094380288
I1216 19:12:24.094734 28860 layer_factory.hpp:77] Creating layer scaleP4_inter_branch2a
I1216 19:12:24.094746 28860 net.cpp:100] Creating Layer scaleP4_inter_branch2a
I1216 19:12:24.094753 28860 net.cpp:434] scaleP4_inter_branch2a <- resP4_inter_branch2a
I1216 19:12:24.094760 28860 net.cpp:395] scaleP4_inter_branch2a -> resP4_inter_branch2a (in-place)
I1216 19:12:24.094825 28860 layer_factory.hpp:77] Creating layer scaleP4_inter_branch2a
I1216 19:12:24.095021 28860 net.cpp:150] Setting up scaleP4_inter_branch2a
I1216 19:12:24.095034 28860 net.cpp:157] Top shape: 30 64 8 8 (122880)
I1216 19:12:24.095039 28860 net.cpp:165] Memory required for data: 6094871808
I1216 19:12:24.095047 28860 layer_factory.hpp:77] Creating layer resP4_inter_branch2a_relu
I1216 19:12:24.095057 28860 net.cpp:100] Creating Layer resP4_inter_branch2a_relu
I1216 19:12:24.095067 28860 net.cpp:434] resP4_inter_branch2a_relu <- resP4_inter_branch2a
I1216 19:12:24.095073 28860 net.cpp:395] resP4_inter_branch2a_relu -> resP4_inter_branch2a (in-place)
I1216 19:12:24.096063 28860 net.cpp:150] Setting up resP4_inter_branch2a_relu
I1216 19:12:24.096079 28860 net.cpp:157] Top shape: 30 64 8 8 (122880)
I1216 19:12:24.096084 28860 net.cpp:165] Memory required for data: 6095363328
I1216 19:12:24.096092 28860 layer_factory.hpp:77] Creating layer resP4_inter_branch2b
I1216 19:12:24.096107 28860 net.cpp:100] Creating Layer resP4_inter_branch2b
I1216 19:12:24.096113 28860 net.cpp:434] resP4_inter_branch2b <- resP4_inter_branch2a
I1216 19:12:24.096125 28860 net.cpp:408] resP4_inter_branch2b -> resP4_inter_branch2b
I1216 19:12:24.102506 28860 net.cpp:150] Setting up resP4_inter_branch2b
I1216 19:12:24.102529 28860 net.cpp:157] Top shape: 30 64 8 8 (122880)
I1216 19:12:24.102535 28860 net.cpp:165] Memory required for data: 6095854848
I1216 19:12:24.102543 28860 layer_factory.hpp:77] Creating layer bnP4_inter_branch2b
I1216 19:12:24.102552 28860 net.cpp:100] Creating Layer bnP4_inter_branch2b
I1216 19:12:24.102560 28860 net.cpp:434] bnP4_inter_branch2b <- resP4_inter_branch2b
I1216 19:12:24.102571 28860 net.cpp:395] bnP4_inter_branch2b -> resP4_inter_branch2b (in-place)
I1216 19:12:24.102910 28860 net.cpp:150] Setting up bnP4_inter_branch2b
I1216 19:12:24.102922 28860 net.cpp:157] Top shape: 30 64 8 8 (122880)
I1216 19:12:24.102926 28860 net.cpp:165] Memory required for data: 6096346368
I1216 19:12:24.102937 28860 layer_factory.hpp:77] Creating layer scaleP4_inter_branch2b
I1216 19:12:24.102949 28860 net.cpp:100] Creating Layer scaleP4_inter_branch2b
I1216 19:12:24.102955 28860 net.cpp:434] scaleP4_inter_branch2b <- resP4_inter_branch2b
I1216 19:12:24.102962 28860 net.cpp:395] scaleP4_inter_branch2b -> resP4_inter_branch2b (in-place)
I1216 19:12:24.103036 28860 layer_factory.hpp:77] Creating layer scaleP4_inter_branch2b
I1216 19:12:24.103211 28860 net.cpp:150] Setting up scaleP4_inter_branch2b
I1216 19:12:24.103224 28860 net.cpp:157] Top shape: 30 64 8 8 (122880)
I1216 19:12:24.103245 28860 net.cpp:165] Memory required for data: 6096837888
I1216 19:12:24.103253 28860 layer_factory.hpp:77] Creating layer resP4_inter_branch2b_relu
I1216 19:12:24.103265 28860 net.cpp:100] Creating Layer resP4_inter_branch2b_relu
I1216 19:12:24.103269 28860 net.cpp:434] resP4_inter_branch2b_relu <- resP4_inter_branch2b
I1216 19:12:24.103276 28860 net.cpp:395] resP4_inter_branch2b_relu -> resP4_inter_branch2b (in-place)
I1216 19:12:24.106719 28860 net.cpp:150] Setting up resP4_inter_branch2b_relu
I1216 19:12:24.106739 28860 net.cpp:157] Top shape: 30 64 8 8 (122880)
I1216 19:12:24.106743 28860 net.cpp:165] Memory required for data: 6097329408
I1216 19:12:24.106748 28860 layer_factory.hpp:77] Creating layer resP4_inter
I1216 19:12:24.106760 28860 net.cpp:100] Creating Layer resP4_inter
I1216 19:12:24.106766 28860 net.cpp:434] resP4_inter <- resP4_inter_branch1
I1216 19:12:24.106773 28860 net.cpp:434] resP4_inter <- resP4_inter_branch2b
I1216 19:12:24.106781 28860 net.cpp:408] resP4_inter -> resP4_inter
I1216 19:12:24.106828 28860 net.cpp:150] Setting up resP4_inter
I1216 19:12:24.106839 28860 net.cpp:157] Top shape: 30 64 8 8 (122880)
I1216 19:12:24.106843 28860 net.cpp:165] Memory required for data: 6097820928
I1216 19:12:24.106848 28860 layer_factory.hpp:77] Creating layer resP4_inter_relu
I1216 19:12:24.106854 28860 net.cpp:100] Creating Layer resP4_inter_relu
I1216 19:12:24.106868 28860 net.cpp:434] resP4_inter_relu <- resP4_inter
I1216 19:12:24.106878 28860 net.cpp:395] resP4_inter_relu -> resP4_inter (in-place)
I1216 19:12:24.107808 28860 net.cpp:150] Setting up resP4_inter_relu
I1216 19:12:24.107822 28860 net.cpp:157] Top shape: 30 64 8 8 (122880)
I1216 19:12:24.107828 28860 net.cpp:165] Memory required for data: 6098312448
I1216 19:12:24.107836 28860 layer_factory.hpp:77] Creating layer resP4_inter_resP4_inter_relu_0_split
I1216 19:12:24.107842 28860 net.cpp:100] Creating Layer resP4_inter_resP4_inter_relu_0_split
I1216 19:12:24.107848 28860 net.cpp:434] resP4_inter_resP4_inter_relu_0_split <- resP4_inter
I1216 19:12:24.107859 28860 net.cpp:408] resP4_inter_resP4_inter_relu_0_split -> resP4_inter_resP4_inter_relu_0_split_0
I1216 19:12:24.107869 28860 net.cpp:408] resP4_inter_resP4_inter_relu_0_split -> resP4_inter_resP4_inter_relu_0_split_1
I1216 19:12:24.107939 28860 net.cpp:150] Setting up resP4_inter_resP4_inter_relu_0_split
I1216 19:12:24.107947 28860 net.cpp:157] Top shape: 30 64 8 8 (122880)
I1216 19:12:24.107954 28860 net.cpp:157] Top shape: 30 64 8 8 (122880)
I1216 19:12:24.107959 28860 net.cpp:165] Memory required for data: 6099295488
I1216 19:12:24.107962 28860 layer_factory.hpp:77] Creating layer resP4_inter_mbox_loc
I1216 19:12:24.107976 28860 net.cpp:100] Creating Layer resP4_inter_mbox_loc
I1216 19:12:24.107985 28860 net.cpp:434] resP4_inter_mbox_loc <- resP4_inter_resP4_inter_relu_0_split_0
I1216 19:12:24.108000 28860 net.cpp:408] resP4_inter_mbox_loc -> resP4_inter_mbox_loc
I1216 19:12:24.115617 28860 net.cpp:150] Setting up resP4_inter_mbox_loc
I1216 19:12:24.115638 28860 net.cpp:157] Top shape: 30 12 8 8 (23040)
I1216 19:12:24.115644 28860 net.cpp:165] Memory required for data: 6099387648
I1216 19:12:24.115653 28860 layer_factory.hpp:77] Creating layer resP4_inter_mbox_loc_perm
I1216 19:12:24.115664 28860 net.cpp:100] Creating Layer resP4_inter_mbox_loc_perm
I1216 19:12:24.115670 28860 net.cpp:434] resP4_inter_mbox_loc_perm <- resP4_inter_mbox_loc
I1216 19:12:24.115681 28860 net.cpp:408] resP4_inter_mbox_loc_perm -> resP4_inter_mbox_loc_perm
I1216 19:12:24.115831 28860 net.cpp:150] Setting up resP4_inter_mbox_loc_perm
I1216 19:12:24.115840 28860 net.cpp:157] Top shape: 30 8 8 12 (23040)
I1216 19:12:24.115845 28860 net.cpp:165] Memory required for data: 6099479808
I1216 19:12:24.115850 28860 layer_factory.hpp:77] Creating layer resP4_inter_mbox_loc_flat
I1216 19:12:24.115859 28860 net.cpp:100] Creating Layer resP4_inter_mbox_loc_flat
I1216 19:12:24.115865 28860 net.cpp:434] resP4_inter_mbox_loc_flat <- resP4_inter_mbox_loc_perm
I1216 19:12:24.115872 28860 net.cpp:408] resP4_inter_mbox_loc_flat -> resP4_inter_mbox_loc_flat
I1216 19:12:24.115926 28860 net.cpp:150] Setting up resP4_inter_mbox_loc_flat
I1216 19:12:24.115936 28860 net.cpp:157] Top shape: 30 768 (23040)
I1216 19:12:24.115939 28860 net.cpp:165] Memory required for data: 6099571968
I1216 19:12:24.115945 28860 layer_factory.hpp:77] Creating layer resP4_inter_mbox_conf_ft
I1216 19:12:24.115965 28860 net.cpp:100] Creating Layer resP4_inter_mbox_conf_ft
I1216 19:12:24.115972 28860 net.cpp:434] resP4_inter_mbox_conf_ft <- resP4_inter_resP4_inter_relu_0_split_1
I1216 19:12:24.115980 28860 net.cpp:408] resP4_inter_mbox_conf_ft -> resP4_inter_mbox_conf_ft
I1216 19:12:24.120925 28860 net.cpp:150] Setting up resP4_inter_mbox_conf_ft
I1216 19:12:24.120949 28860 net.cpp:157] Top shape: 30 6 8 8 (11520)
I1216 19:12:24.120954 28860 net.cpp:165] Memory required for data: 6099618048
I1216 19:12:24.120963 28860 layer_factory.hpp:77] Creating layer resP4_inter_mbox_conf_ft_perm_ft
I1216 19:12:24.120972 28860 net.cpp:100] Creating Layer resP4_inter_mbox_conf_ft_perm_ft
I1216 19:12:24.120980 28860 net.cpp:434] resP4_inter_mbox_conf_ft_perm_ft <- resP4_inter_mbox_conf_ft
I1216 19:12:24.120991 28860 net.cpp:408] resP4_inter_mbox_conf_ft_perm_ft -> resP4_inter_mbox_conf_ft_perm_ft
I1216 19:12:24.121145 28860 net.cpp:150] Setting up resP4_inter_mbox_conf_ft_perm_ft
I1216 19:12:24.121155 28860 net.cpp:157] Top shape: 30 8 8 6 (11520)
I1216 19:12:24.121160 28860 net.cpp:165] Memory required for data: 6099664128
I1216 19:12:24.121167 28860 layer_factory.hpp:77] Creating layer resP4_inter_mbox_conf_ft_flat_ft
I1216 19:12:24.121176 28860 net.cpp:100] Creating Layer resP4_inter_mbox_conf_ft_flat_ft
I1216 19:12:24.121181 28860 net.cpp:434] resP4_inter_mbox_conf_ft_flat_ft <- resP4_inter_mbox_conf_ft_perm_ft
I1216 19:12:24.121191 28860 net.cpp:408] resP4_inter_mbox_conf_ft_flat_ft -> resP4_inter_mbox_conf_ft_flat_ft
I1216 19:12:24.121224 28860 net.cpp:150] Setting up resP4_inter_mbox_conf_ft_flat_ft
I1216 19:12:24.121232 28860 net.cpp:157] Top shape: 30 384 (11520)
I1216 19:12:24.121237 28860 net.cpp:165] Memory required for data: 6099710208
I1216 19:12:24.121242 28860 layer_factory.hpp:77] Creating layer resP5_inter_branch1
I1216 19:12:24.121258 28860 net.cpp:100] Creating Layer resP5_inter_branch1
I1216 19:12:24.121265 28860 net.cpp:434] resP5_inter_branch1 <- P5_P5_relu_0_split_1
I1216 19:12:24.121282 28860 net.cpp:408] resP5_inter_branch1 -> resP5_inter_branch1
I1216 19:12:24.126261 28860 net.cpp:150] Setting up resP5_inter_branch1
I1216 19:12:24.126282 28860 net.cpp:157] Top shape: 30 64 4 4 (30720)
I1216 19:12:24.126287 28860 net.cpp:165] Memory required for data: 6099833088
I1216 19:12:24.126296 28860 layer_factory.hpp:77] Creating layer bnP5_inter_branch1
I1216 19:12:24.126307 28860 net.cpp:100] Creating Layer bnP5_inter_branch1
I1216 19:12:24.126313 28860 net.cpp:434] bnP5_inter_branch1 <- resP5_inter_branch1
I1216 19:12:24.126323 28860 net.cpp:395] bnP5_inter_branch1 -> resP5_inter_branch1 (in-place)
I1216 19:12:24.126629 28860 net.cpp:150] Setting up bnP5_inter_branch1
I1216 19:12:24.126642 28860 net.cpp:157] Top shape: 30 64 4 4 (30720)
I1216 19:12:24.126646 28860 net.cpp:165] Memory required for data: 6099955968
I1216 19:12:24.126657 28860 layer_factory.hpp:77] Creating layer scaleP5_inter_branch1
I1216 19:12:24.126668 28860 net.cpp:100] Creating Layer scaleP5_inter_branch1
I1216 19:12:24.126677 28860 net.cpp:434] scaleP5_inter_branch1 <- resP5_inter_branch1
I1216 19:12:24.126684 28860 net.cpp:395] scaleP5_inter_branch1 -> resP5_inter_branch1 (in-place)
I1216 19:12:24.126742 28860 layer_factory.hpp:77] Creating layer scaleP5_inter_branch1
I1216 19:12:24.126926 28860 net.cpp:150] Setting up scaleP5_inter_branch1
I1216 19:12:24.126938 28860 net.cpp:157] Top shape: 30 64 4 4 (30720)
I1216 19:12:24.126943 28860 net.cpp:165] Memory required for data: 6100078848
I1216 19:12:24.126950 28860 layer_factory.hpp:77] Creating layer resP5_inter_branch2a
I1216 19:12:24.126965 28860 net.cpp:100] Creating Layer resP5_inter_branch2a
I1216 19:12:24.126971 28860 net.cpp:434] resP5_inter_branch2a <- P5_P5_relu_0_split_2
I1216 19:12:24.126999 28860 net.cpp:408] resP5_inter_branch2a -> resP5_inter_branch2a
I1216 19:12:24.144105 28860 net.cpp:150] Setting up resP5_inter_branch2a
I1216 19:12:24.144129 28860 net.cpp:157] Top shape: 30 64 4 4 (30720)
I1216 19:12:24.144134 28860 net.cpp:165] Memory required for data: 6100201728
I1216 19:12:24.144141 28860 layer_factory.hpp:77] Creating layer bnP5_inter_branch2a
I1216 19:12:24.144150 28860 net.cpp:100] Creating Layer bnP5_inter_branch2a
I1216 19:12:24.144155 28860 net.cpp:434] bnP5_inter_branch2a <- resP5_inter_branch2a
I1216 19:12:24.144166 28860 net.cpp:395] bnP5_inter_branch2a -> resP5_inter_branch2a (in-place)
I1216 19:12:24.144469 28860 net.cpp:150] Setting up bnP5_inter_branch2a
I1216 19:12:24.144480 28860 net.cpp:157] Top shape: 30 64 4 4 (30720)
I1216 19:12:24.144484 28860 net.cpp:165] Memory required for data: 6100324608
I1216 19:12:24.144497 28860 layer_factory.hpp:77] Creating layer scaleP5_inter_branch2a
I1216 19:12:24.144505 28860 net.cpp:100] Creating Layer scaleP5_inter_branch2a
I1216 19:12:24.144510 28860 net.cpp:434] scaleP5_inter_branch2a <- resP5_inter_branch2a
I1216 19:12:24.144520 28860 net.cpp:395] scaleP5_inter_branch2a -> resP5_inter_branch2a (in-place)
I1216 19:12:24.144578 28860 layer_factory.hpp:77] Creating layer scaleP5_inter_branch2a
I1216 19:12:24.144744 28860 net.cpp:150] Setting up scaleP5_inter_branch2a
I1216 19:12:24.144754 28860 net.cpp:157] Top shape: 30 64 4 4 (30720)
I1216 19:12:24.144758 28860 net.cpp:165] Memory required for data: 6100447488
I1216 19:12:24.144767 28860 layer_factory.hpp:77] Creating layer resP5_inter_branch2a_relu
I1216 19:12:24.144775 28860 net.cpp:100] Creating Layer resP5_inter_branch2a_relu
I1216 19:12:24.144780 28860 net.cpp:434] resP5_inter_branch2a_relu <- resP5_inter_branch2a
I1216 19:12:24.144786 28860 net.cpp:395] resP5_inter_branch2a_relu -> resP5_inter_branch2a (in-place)
I1216 19:12:24.156543 28860 net.cpp:150] Setting up resP5_inter_branch2a_relu
I1216 19:12:24.156561 28860 net.cpp:157] Top shape: 30 64 4 4 (30720)
I1216 19:12:24.156565 28860 net.cpp:165] Memory required for data: 6100570368
I1216 19:12:24.156570 28860 layer_factory.hpp:77] Creating layer resP5_inter_branch2b
I1216 19:12:24.156584 28860 net.cpp:100] Creating Layer resP5_inter_branch2b
I1216 19:12:24.156591 28860 net.cpp:434] resP5_inter_branch2b <- resP5_inter_branch2a
I1216 19:12:24.156602 28860 net.cpp:408] resP5_inter_branch2b -> resP5_inter_branch2b
I1216 19:12:24.166923 28860 net.cpp:150] Setting up resP5_inter_branch2b
I1216 19:12:24.166946 28860 net.cpp:157] Top shape: 30 64 4 4 (30720)
I1216 19:12:24.166951 28860 net.cpp:165] Memory required for data: 6100693248
I1216 19:12:24.166960 28860 layer_factory.hpp:77] Creating layer bnP5_inter_branch2b
I1216 19:12:24.167096 28860 net.cpp:100] Creating Layer bnP5_inter_branch2b
I1216 19:12:24.167106 28860 net.cpp:434] bnP5_inter_branch2b <- resP5_inter_branch2b
I1216 19:12:24.167114 28860 net.cpp:395] bnP5_inter_branch2b -> resP5_inter_branch2b (in-place)
I1216 19:12:24.167387 28860 net.cpp:150] Setting up bnP5_inter_branch2b
I1216 19:12:24.167397 28860 net.cpp:157] Top shape: 30 64 4 4 (30720)
I1216 19:12:24.167400 28860 net.cpp:165] Memory required for data: 6100816128
I1216 19:12:24.167409 28860 layer_factory.hpp:77] Creating layer scaleP5_inter_branch2b
I1216 19:12:24.167423 28860 net.cpp:100] Creating Layer scaleP5_inter_branch2b
I1216 19:12:24.167428 28860 net.cpp:434] scaleP5_inter_branch2b <- resP5_inter_branch2b
I1216 19:12:24.167435 28860 net.cpp:395] scaleP5_inter_branch2b -> resP5_inter_branch2b (in-place)
I1216 19:12:24.167491 28860 layer_factory.hpp:77] Creating layer scaleP5_inter_branch2b
I1216 19:12:24.167654 28860 net.cpp:150] Setting up scaleP5_inter_branch2b
I1216 19:12:24.167665 28860 net.cpp:157] Top shape: 30 64 4 4 (30720)
I1216 19:12:24.167668 28860 net.cpp:165] Memory required for data: 6100939008
I1216 19:12:24.167675 28860 layer_factory.hpp:77] Creating layer resP5_inter_branch2b_relu
I1216 19:12:24.167682 28860 net.cpp:100] Creating Layer resP5_inter_branch2b_relu
I1216 19:12:24.167702 28860 net.cpp:434] resP5_inter_branch2b_relu <- resP5_inter_branch2b
I1216 19:12:24.167711 28860 net.cpp:395] resP5_inter_branch2b_relu -> resP5_inter_branch2b (in-place)
I1216 19:12:24.181294 28860 net.cpp:150] Setting up resP5_inter_branch2b_relu
I1216 19:12:24.181313 28860 net.cpp:157] Top shape: 30 64 4 4 (30720)
I1216 19:12:24.181318 28860 net.cpp:165] Memory required for data: 6101061888
I1216 19:12:24.181324 28860 layer_factory.hpp:77] Creating layer resP5_inter
I1216 19:12:24.181334 28860 net.cpp:100] Creating Layer resP5_inter
I1216 19:12:24.181339 28860 net.cpp:434] resP5_inter <- resP5_inter_branch1
I1216 19:12:24.181345 28860 net.cpp:434] resP5_inter <- resP5_inter_branch2b
I1216 19:12:24.181355 28860 net.cpp:408] resP5_inter -> resP5_inter
I1216 19:12:24.181397 28860 net.cpp:150] Setting up resP5_inter
I1216 19:12:24.181406 28860 net.cpp:157] Top shape: 30 64 4 4 (30720)
I1216 19:12:24.181411 28860 net.cpp:165] Memory required for data: 6101184768
I1216 19:12:24.181416 28860 layer_factory.hpp:77] Creating layer resP5_inter_relu
I1216 19:12:24.181426 28860 net.cpp:100] Creating Layer resP5_inter_relu
I1216 19:12:24.181432 28860 net.cpp:434] resP5_inter_relu <- resP5_inter
I1216 19:12:24.181437 28860 net.cpp:395] resP5_inter_relu -> resP5_inter (in-place)
I1216 19:12:24.182267 28860 net.cpp:150] Setting up resP5_inter_relu
I1216 19:12:24.182281 28860 net.cpp:157] Top shape: 30 64 4 4 (30720)
I1216 19:12:24.182284 28860 net.cpp:165] Memory required for data: 6101307648
I1216 19:12:24.182288 28860 layer_factory.hpp:77] Creating layer resP5_inter_resP5_inter_relu_0_split
I1216 19:12:24.182299 28860 net.cpp:100] Creating Layer resP5_inter_resP5_inter_relu_0_split
I1216 19:12:24.182304 28860 net.cpp:434] resP5_inter_resP5_inter_relu_0_split <- resP5_inter
I1216 19:12:24.182312 28860 net.cpp:408] resP5_inter_resP5_inter_relu_0_split -> resP5_inter_resP5_inter_relu_0_split_0
I1216 19:12:24.182324 28860 net.cpp:408] resP5_inter_resP5_inter_relu_0_split -> resP5_inter_resP5_inter_relu_0_split_1
I1216 19:12:24.182385 28860 net.cpp:150] Setting up resP5_inter_resP5_inter_relu_0_split
I1216 19:12:24.182394 28860 net.cpp:157] Top shape: 30 64 4 4 (30720)
I1216 19:12:24.182399 28860 net.cpp:157] Top shape: 30 64 4 4 (30720)
I1216 19:12:24.182404 28860 net.cpp:165] Memory required for data: 6101553408
I1216 19:12:24.182409 28860 layer_factory.hpp:77] Creating layer resP5_inter_mbox_loc
I1216 19:12:24.182422 28860 net.cpp:100] Creating Layer resP5_inter_mbox_loc
I1216 19:12:24.182428 28860 net.cpp:434] resP5_inter_mbox_loc <- resP5_inter_resP5_inter_relu_0_split_0
I1216 19:12:24.182440 28860 net.cpp:408] resP5_inter_mbox_loc -> resP5_inter_mbox_loc
I1216 19:12:24.186473 28860 net.cpp:150] Setting up resP5_inter_mbox_loc
I1216 19:12:24.186493 28860 net.cpp:157] Top shape: 30 12 4 4 (5760)
I1216 19:12:24.186498 28860 net.cpp:165] Memory required for data: 6101576448
I1216 19:12:24.186507 28860 layer_factory.hpp:77] Creating layer resP5_inter_mbox_loc_perm
I1216 19:12:24.186516 28860 net.cpp:100] Creating Layer resP5_inter_mbox_loc_perm
I1216 19:12:24.186520 28860 net.cpp:434] resP5_inter_mbox_loc_perm <- resP5_inter_mbox_loc
I1216 19:12:24.186530 28860 net.cpp:408] resP5_inter_mbox_loc_perm -> resP5_inter_mbox_loc_perm
I1216 19:12:24.186671 28860 net.cpp:150] Setting up resP5_inter_mbox_loc_perm
I1216 19:12:24.186681 28860 net.cpp:157] Top shape: 30 4 4 12 (5760)
I1216 19:12:24.186684 28860 net.cpp:165] Memory required for data: 6101599488
I1216 19:12:24.186688 28860 layer_factory.hpp:77] Creating layer resP5_inter_mbox_loc_flat
I1216 19:12:24.186697 28860 net.cpp:100] Creating Layer resP5_inter_mbox_loc_flat
I1216 19:12:24.186702 28860 net.cpp:434] resP5_inter_mbox_loc_flat <- resP5_inter_mbox_loc_perm
I1216 19:12:24.186710 28860 net.cpp:408] resP5_inter_mbox_loc_flat -> resP5_inter_mbox_loc_flat
I1216 19:12:24.186740 28860 net.cpp:150] Setting up resP5_inter_mbox_loc_flat
I1216 19:12:24.186748 28860 net.cpp:157] Top shape: 30 192 (5760)
I1216 19:12:24.186751 28860 net.cpp:165] Memory required for data: 6101622528
I1216 19:12:24.186772 28860 layer_factory.hpp:77] Creating layer resP5_inter_mbox_conf_ft
I1216 19:12:24.186790 28860 net.cpp:100] Creating Layer resP5_inter_mbox_conf_ft
I1216 19:12:24.186795 28860 net.cpp:434] resP5_inter_mbox_conf_ft <- resP5_inter_resP5_inter_relu_0_split_1
I1216 19:12:24.186806 28860 net.cpp:408] resP5_inter_mbox_conf_ft -> resP5_inter_mbox_conf_ft
I1216 19:12:24.191979 28860 net.cpp:150] Setting up resP5_inter_mbox_conf_ft
I1216 19:12:24.192000 28860 net.cpp:157] Top shape: 30 6 4 4 (2880)
I1216 19:12:24.192004 28860 net.cpp:165] Memory required for data: 6101634048
I1216 19:12:24.192013 28860 layer_factory.hpp:77] Creating layer resP5_inter_mbox_conf_ft_perm_ft
I1216 19:12:24.192021 28860 net.cpp:100] Creating Layer resP5_inter_mbox_conf_ft_perm_ft
I1216 19:12:24.192028 28860 net.cpp:434] resP5_inter_mbox_conf_ft_perm_ft <- resP5_inter_mbox_conf_ft
I1216 19:12:24.192037 28860 net.cpp:408] resP5_inter_mbox_conf_ft_perm_ft -> resP5_inter_mbox_conf_ft_perm_ft
I1216 19:12:24.192183 28860 net.cpp:150] Setting up resP5_inter_mbox_conf_ft_perm_ft
I1216 19:12:24.192193 28860 net.cpp:157] Top shape: 30 4 4 6 (2880)
I1216 19:12:24.192196 28860 net.cpp:165] Memory required for data: 6101645568
I1216 19:12:24.192200 28860 layer_factory.hpp:77] Creating layer resP5_inter_mbox_conf_ft_flat_ft
I1216 19:12:24.192209 28860 net.cpp:100] Creating Layer resP5_inter_mbox_conf_ft_flat_ft
I1216 19:12:24.192216 28860 net.cpp:434] resP5_inter_mbox_conf_ft_flat_ft <- resP5_inter_mbox_conf_ft_perm_ft
I1216 19:12:24.192224 28860 net.cpp:408] resP5_inter_mbox_conf_ft_flat_ft -> resP5_inter_mbox_conf_ft_flat_ft
I1216 19:12:24.192255 28860 net.cpp:150] Setting up resP5_inter_mbox_conf_ft_flat_ft
I1216 19:12:24.192265 28860 net.cpp:157] Top shape: 30 96 (2880)
I1216 19:12:24.192267 28860 net.cpp:165] Memory required for data: 6101657088
I1216 19:12:24.192271 28860 layer_factory.hpp:77] Creating layer odm_loc
I1216 19:12:24.192279 28860 net.cpp:100] Creating Layer odm_loc
I1216 19:12:24.192284 28860 net.cpp:434] odm_loc <- resP2_inter_mbox_loc_flat
I1216 19:12:24.192291 28860 net.cpp:434] odm_loc <- resP3_inter_mbox_loc_flat
I1216 19:12:24.192298 28860 net.cpp:434] odm_loc <- resP4_inter_mbox_loc_flat
I1216 19:12:24.192303 28860 net.cpp:434] odm_loc <- resP5_inter_mbox_loc_flat
I1216 19:12:24.192311 28860 net.cpp:408] odm_loc -> odm_loc
I1216 19:12:24.192339 28860 net.cpp:150] Setting up odm_loc
I1216 19:12:24.192348 28860 net.cpp:157] Top shape: 30 16320 (489600)
I1216 19:12:24.192351 28860 net.cpp:165] Memory required for data: 6103615488
I1216 19:12:24.192355 28860 layer_factory.hpp:77] Creating layer odm_conf_ft
I1216 19:12:24.192371 28860 net.cpp:100] Creating Layer odm_conf_ft
I1216 19:12:24.192378 28860 net.cpp:434] odm_conf_ft <- resP2_inter_mbox_conf_ft_flat_ft
I1216 19:12:24.192384 28860 net.cpp:434] odm_conf_ft <- resP3_inter_mbox_conf_ft_flat_ft
I1216 19:12:24.192389 28860 net.cpp:434] odm_conf_ft <- resP4_inter_mbox_conf_ft_flat_ft
I1216 19:12:24.192394 28860 net.cpp:434] odm_conf_ft <- resP5_inter_mbox_conf_ft_flat_ft
I1216 19:12:24.192402 28860 net.cpp:408] odm_conf_ft -> odm_conf_ft
I1216 19:12:24.192428 28860 net.cpp:150] Setting up odm_conf_ft
I1216 19:12:24.192437 28860 net.cpp:157] Top shape: 30 8160 (244800)
I1216 19:12:24.192440 28860 net.cpp:165] Memory required for data: 6104594688
I1216 19:12:24.192445 28860 layer_factory.hpp:77] Creating layer arm_loss
I1216 19:12:24.192462 28860 net.cpp:100] Creating Layer arm_loss
I1216 19:12:24.192471 28860 net.cpp:434] arm_loss <- arm_loc_arm_loc_0_split_0
I1216 19:12:24.192476 28860 net.cpp:434] arm_loss <- arm_conf_arm_conf_0_split_0
I1216 19:12:24.192482 28860 net.cpp:434] arm_loss <- arm_priorbox_arm_priorbox_0_split_0
…
